project_2/lightning_logs/version_0/checkpoints/epoch=9-step=2930.ckpt (torch, 221275 bytes, 30 tensors)

rnn.weight_ih_l0 f4 [64, 37]
00000000: 0ab4 cb3d 9662 47bd 3159 69bb bed8 fa3d
00000010: de82 043e 00c8 6bbc ccd9 133e 13e5 1ebe
00000020: 2089 593d b49e 383d 3477 d5bd 68c9 ffbd
00000030: 12a3 c5bd 0d17 2a3e 433a 003d 7511 1d3c
00000040: 1417 35be 30b4 123e d7ae 1cbc b0e5 e83d
00000050: 36c9 15be e57e aabd 1c50 193d 09bc 44be
00000060: be7a 433e 41c2 333d f07f 1bbe 833f 19be
00000070: ca2d 81be c929 0b3e 46c0 1f3d 7486 d13d
00000080: ed2d e0bd 14ff a4bd 2cfb 30be cdcb 263e
00000090: 4606 e53d 6f1e 52bd 3ebf 743c 0868 04be
000000a0: d78a b5bc 7eb4 273d 2393 c23b 1b93 88bb
000000b0: 4624 263e 0b3c f3bb 0408 cd3d f6db 6e3d
000000c0: 9d80 d8bc 2fad b6bd 8e6c 493e 6420 1e3e
000000d0: 5c3e 0fbe 7723 6cbd 83c7 843d cba6 1cbe
000000e0: 5f9f 013e 9fa7 063e 7020 fc3d 8dc3 373e
000000f0: 6b3e ae3d 0ba6 fcbd 375e 0ebe 8ea5 37be
00000100: c034 333e e7aa 13bd d654 17be 8a6f 00be
00000110: f4ed c83d fa8a 883e 297a 173e ea94 1cbe
00000120: eed7 6cbe b272 313e b5e6 2ebd 444c edbd
00000130: b998 79bd de9a babd 1cbd c2bd 9aef 903b
00000140: 7ae6 4c3c d566 8d3d 1947 06be 671b d3bc
00000150: 5785 f33d a2f8 353e e958 6ebd b1ab 2f3d
00000160: e00c cbbd a03b 593d 81fc 0cbd 425a c1bd
00000170: 5ccc 633d c91e 3d3a eff9 a4be bf22 7a3d
00000180: 5a23 1e3c 8ccd 353e c492 3dbe 5217 e53d
00000190: 6355 ffbd 39af 073e 1850 2ebe b800 84be
000001a0: d915 533d 9c2c b73d 5651 d63d 37ca afbe
000001b0: 74b5 113e 77ed 3a3e 92a1 06bd 33d9 9e3d
000001c0: 5d9d 8c3b b33d 2dbe ef98 673d 6ae5 d43d
000001d0: 74c2 573d b6e7 89bc 30db bc3d b495 bfbd
000001e0: 1b49 b2bc 9c93 ee3d e319 85bd 0295 38bd
000001f0: ab91 ffbd 9403 ea3d 3dfd 033e 8f89 96bc
00000200: b65f 36bb 6551 cc3d 5fae 8fbc 0a1a ce3d
00000210: db6d 643e 33f8 1dbc fac6 6a3e 9f7e 463e
00000220: b495 02be bcef edbd 1672 27be 64a9 f1bd
00000230: 92d8 b8bd c72f 55bd 049d 663e c902 9fbd
00000240: d272 fbbd 120a 3e3e e64d 553c de44 963b
00000250: 8134 5fbe d205 653d 3c5e f33c 5f67 a4bd
00000260: 019b a0bd d667 1dbe f2d2 2239 eeba 3cbd
00000270: a3f2 463d 7096 6f3d 996e e73d 5734 15bd
00000280: 5821 0dbd ac50 cabd fd30 003e dd48 0ebe
00000290: 685c 2b3e ab58 883e 144e 6a3e 723d 713d
000002a0: b389 62be a335 72bd 8d8f 9b3d f62f 803d
000002b0: 7731 35be 60d5 c43d 7251 dcbd bfe7 53be
000002c0: 50c4 2cbe ab0d 3b3e 623b ef3c aa05 423e
000002d0: 66ca 1bbd 435d a73b b394 1cbd bf14 f8bd
000002e0: 835c 84be ae99 723b a318 33bd 7c3a aabd
000002f0: fff7 8a3d 12e4 5b3d 2699 2ebd 527e 2d3d
00000300: 5edf d53d 6a13 34bd c55a 803a 05b1 d83c
00000310: fb41 1ebd 6bd7 8ebd a90d 29be 118c 1abe
00000320: 3795 35be 41f1 cd3d 6162 78be 3dfc 003d
00000330: 063d 0d3e 17e0 853e 6409 283d 8a60 4f3e
00000340: 2aba 1d3e 8b55 753d ec40 04be aa1d 34be
00000350: 3a45 f7bd cdd5 83be 9d99 61be cd42 4abe
00000360: c4eb 5b3e 5d49 53be 7ff0 583e 7765 5dbe
00000370: bc2e 9d3e 9b90 2e3d 9093 39be 97e2 14bc
00000380: 9e5a 8abd 3a80 ba3d bceb a3bd b77e f0bd
00000390: f5b6 68bd 4817 db3d 86be cc3d 5b75 a7bd
000003a0: 1b88 bd3d 8c7a 41bb 1594 30bd f340 5f3e
000003b0: c602 a43d 844a 14be 2694 e9bd cfcd 943d
000003c0: f823 f13d b642 e23c 9da5 0c3e 482e 14be
000003d0: 5929 4fbe 914c b7bd 2330 4cbe 0928 e33c
000003e0: ba27 663e 90b5 b5bd 1ff4 42be 1eb9 053e
000003f0: 4788 05be 646c 8e3d ff69 963d d92b 1c3c
0.09946449 -0.048678003 -0.003560614 0.122483715 0.12940547 -0.014390945 0.14438552 -0.15517072
0.05310929 0.045073226 -0.10423127 -0.12489587 -0.09650244 0.16610356 0.031305563 0.009586682
-0.17684585 0.14326549 -0.009563169 0.113719344 -0.14627537 -0.083249845 0.037429914 -0.19212355
0.19089791 0.043886427 -0.15185523 -0.14965634 -0.25230247 0.13590159 0.039001726 0.10230723
-0.1094626 -0.08056465 -0.17283314 0.16288681 0.11182837 -0.051298555 0.014938174 -0.1293031
-0.02216093 0.040943615 0.00593795 -0.004167927 0.16224775 -0.007422929 0.100112945 0.05831524
-0.026428515 -0.08919751 0.19670317 0.15442044 -0.13988632 -0.05765101 0.06483366 -0.15298001
0.12658451 0.1314988 0.123108745 0.1794569 0.08507999 -0.12336358 -0.13903128 -0.17934248
0.17500591 -0.036051657 -0.14778456 -0.12542549 0.09811011 0.2666853 0.14792694 -0.15291181
-0.23129246 0.17328909 -0.042700488 -0.11586812 -0.060936663 -0.0911157 -0.09508726 0.004423094
0.012506122 0.06904379 -0.13113059 -0.025769902 0.11890667 0.17770627 -0.05819026 0.042888347
-0.09914565 0.05303538 -0.034420494 -0.094410434 0.055614814 0.0007214365 -0.32221934 0.061068293
0.009651983 0.17754191 -0.18513018 0.111860886 -0.12467458 0.13250436 -0.17022741 -0.25781798
0.051534507 0.089440554 0.10464732 -0.34333965 0.14229375 0.18254648 -0.03286893 0.07756271
0.00429122 -0.16918068 0.056542333 0.1039532 0.05267568 -0.016834121 0.09221494 -0.093547255
-0.021763375 0.11649248 -0.06499078 -0.04506398 -0.12478956 0.11426464 0.12889571 -0.01837614
-0.0027828044 0.09976462 -0.017539201 0.1006356 0.22307532 -0.009641695 0.22927466 0.1938424
-0.1275242 -0.11617991 -0.16352114 -0.11799887 -0.090256825 -0.052047517 0.22520834 -0.07764203
-0.122777596 0.18558529 0.013019061 0.0045858463 -0.21797372 0.055913754 0.02970802 -0.08027529
-0.07842065 -0.15371642 0.00015528107 -0.046076708 0.04857124 0.058493078 0.11300392 -0.03642687
-0.034455627 -0.09878668 0.12518688 -0.13894983 0.16734469 0.26630148 0.22881347 0.05889649
-0.2212284 -0.059133183 0.075957395 0.06259148 -0.1769465 0.096110106 -0.10757722 -0.20693873
-0.16871762 0.18266933 0.02920312 0.18947473 -0.03803482 0.005107553 -0.038227748 -0.12113332
-0.2585183 0.003701787 -0.043724667 -0.08311936 0.06785583 0.0536843 -0.042626522 0.042356797
0.104429945 -0.043963827 0.0009792676 0.026451597 -0.038637143 -0.069746815 -0.16509117 -0.15092494
-0.17732702 0.10055781 -0.24256279 0.031490553 0.1379281 0.2614753 0.04102458 0.2025167
0.15403047 0.059896033 -0.1291539 -0.17589441 -0.12073751 -0.25749055 -0.22031255 -0.19752045
0.21476656 -0.20633455 0.21185492 -0.21620737 0.30699718 0.042618375 -0.18122697 -0.009087226
-0.06755565 0.091064885 -0.08003947 -0.11742919 -0.056815106 0.106978 0.09997277 -0.08176681
0.09254476 -0.0029522507 -0.043109972 0.2180212 0.080083415 -0.1448155 -0.1140521 0.072658174
0.117744386 0.0276197 0.13735051 -0.1447078 -0.20230617 -0.08950151 -0.19940238 0.027729051
0.22476092 -0.08872521 -0.19038437 0.13058898 -0.13040267 0.069542676 0.07344436 0.0095319385

rnn.weight_hh_l0 f4 [64, 64]
00000000: b86a f8bd f45f 32bd 9a86 a63d d096 643c
00000010: 9029 0abc be37 8d3d a20f cfbd 44b4 45bd
00000020: 2262 91bd c024 2fbd a8c6 31bd be9c c13d
00000030: 3213 cf3d e4ab e1bd 342c dcbd f0c4 263d
00000040: a824 f6bc c8eb 2fbd c0e9 ce3d fc69 a2bd
00000050: b85a bfbd be6c d03d 502b d6bc 3009 013c
00000060: 7ceb 74bd ba73 d23d f66d 8abd 307d 0d3d
00000070: 3c57 59bd e2cc 9e3d e0c4 783d a4dd 76bd
00000080: 628c ca3d 3033 37bc 6c0e 5ebd 207b e33d
00000090: 0002 353d 00a2 cc39 d079 cb3d 1461 b8bd
000000a0: acf5 1a3d e464 aabd 74dc f6bd aa89 f9bd
000000b0: 6035 d6bb 5089 62bd 001c 24bc 2082 d8bd
000000c0: caf3 a83d 8411 533d 30e0 ee3d c0ff a13c
000000d0: 22f2 d9bd f8fb 21bd d091 fd3d d246 e13d
000000e0: 6094 e8bd 72d0 b13d 8026 9f3b 6036 983b
000000f0: e0a5 dbbb 8015 97bd 6ca8 e93d 1848 e1bc
00000100: 7c83 a5bd 041a 75bd 5039 6dbc 52f0 9b3d
00000110: 04b8 703d e495 873d f461 683d e862 a63d
00000120: ca0e ba3d d09e e93c 50d3 57bd 6015 dcbb
00000130: 54cf ce3d 3c2a 7fbd 709b 953c c47e 18bd
00000140: ac28 6f3d 80d1 eabc 9495 363d 4cde abbd
00000150: 301d e8bc 2c0f 2d3d e07d 2e3c cac5 e2bd
00000160: 42b0 e7bd c2e1 b7bd 4231 83bd cac6 bbbd
00000170: 00fe 2f3a 4c76 a63d 4cb4 dc3d ae9f a13d
00000180: 6684 ddbd b087 79bc 34a7 cd3d 0cd7 0a3d
00000190: d698 f43d 58ce e63c a493 1dbd c431 8fbd
000001a0: 789c a23d f020 9ebc 442d 7abd 3821 c23d
000001b0: 38c7 c13c 4063 963d 10aa e8bc 80f8 a33d
000001c0: f8e7 0dbd ca6b d43d c8f5 463d f05b 873d
000001d0: 6e30 e33d 1035 37bd 54e7 72bd c03a 61bc
000001e0: 40cd e5bd a0b6 bdbd 6098 a9bd 02e2 f53d
000001f0: 18ce fbbc a433 523d 104e eabd aaea e2bd
00000200: c025 a9bb cc72 2c3d d6dc debd 7a7d ef3d
00000210: 0017 cf3d 5c1a 2f3d 2435 d9bd 4063 c6bb
00000220: 5018 1fbd a826 f6bc 4a1d b3bd c0ec 25bb
00000230: f41d e73d c071 0fbb 4878 d1bc 3e3c 92bd
00000240: cefb d23d cce8 f2bd ec00 61bd 2afd 88bd
00000250: ce50 a03d d60d bfbd 9ea4 c3bd 1019 80bd
00000260: 8692 8abd 4022 21bd a860 6c3d e233 ae3d
00000270: 2ef8 ffbd 10aa 74bd 50c2 6bbd c8e1 a9bc
00000280: 80ba 1e3d 4ea1 bdbd 1891 a73c 7020 b73c
00000290: a231 ecbd f8a4 a7bc 1a61 a63d f417 1cbd
000002a0: e07e 603d fcab 13bd 0a06 9abd 9053 21bd
000002b0: a69f dfbd 605f 4d3d 1c10 ca3d d248 943d
000002c0: e8c5 f0bd a456 79bd 2077 90bb bee1 c03d
000002d0: dc37 a63d 0a26 a53d c8f8 e5bd a62c c63d
000002e0: 7020 2fbd 3cb7 5d3d 0447 10bd 9856 64bd
000002f0: 684b 2c3d 9466 0a3d c011 043b 0040 6abd
00000300: e0cb ce3b 180d 31bd 32e3 8fbd 8c59 b4bd
00000310: 20e2 0e3c f439 003d 08b4 aebd 70ba 6fbd
00000320: 206e 4dbc 8a7b e7bd 9cff b93d d434 9ebd
00000330: 142f 5a3d b215 bcbd dacc bd3d 201b 313d
00000340: aed8 bb3d 88b7 533d 2a0b ccbd 80a7 cc3d
00000350: e02a 2d3d 6094 093d e802 dabc cc9d e9bd
00000360: e8df 653d 40ab 523d 6098 553d 504b 84bc
00000370: b86b c23c dcad fdbd 1c83 ee3d caf3 c9bd
00000380: a8a6 7f3d e0cb 7bbc a84a df3d 1089 e53d
00000390: 106c 02bc 9cd8 a7bd 72ca a3bd 8cc1 8bbd
000003a0: 421c df3d c894 b13d 78e7 ce3d 98f1 cbbc
000003b0: be23 a33d 24ba 73bd 128c a23d 7c50 823d
000003c0: 00ec a2bd 364d 8f3d 7259 bebd 6cab b8bd
000003d0: 8611 f5bd 5271 d03d e80a aabd 70a4 22bd
000003e0: 981c af3d a2fc 893d 16f0 873d 205c 6d3d
000003f0: 6ac2 98bd 925c 9b3d 5436 febd 2a73 c1bd
-0.1212973 -0.04354854 0.08131142 0.013951972 -0.008432761 0.068953976 -0.101104036 -0.048267618
-0.070987955 -0.042759657 -0.043402344 0.09453724 0.10111083 -0.11019114 -0.107506186 0.040715158
-0.030046776 -0.042949468 0.10103178 -0.07930371 -0.09343475 0.10176991 -0.0261437 0.007875726
-0.059794888 0.10275979 -0.06759255 0.034543216 -0.05306171 0.07753922 0.06073463 -0.060269967
0.09890057 -0.011181638 -0.054212973 0.111074686 0.04419136 0.00039030612 0.09935343 -0.09002891
0.037831947 -0.083200246 -0.12053767 -0.121844605 -0.0065371245 -0.055306733 -0.010016441 -0.105716944
0.08249624 0.051530376 0.11663854 0.019775271 -0.10641886 -0.039546937 0.12381327 0.10999836
-0.11356425 0.08682336 0.0048568845 0.004645154 -0.0067031235 -0.07377148 0.11409077 -0.027500197
-0.08081719 -0.059839264 -0.014478996 0.07614197 0.05876924 0.06620386 0.05673404 0.081243336
0.09084852 0.02851811 -0.052691758 -0.0067164153 0.100981385 -0.062296137 0.018262595 -0.037230268
0.058388397 -0.02866435 0.044576243 -0.08392009 -0.02833423 0.042250797 0.010650128 -0.110728815
-0.113129154 -0.08978607 -0.064058796 -0.091687754 0.0006713569 0.08128032 0.107765764 0.078917846
-0.108162686 -0.015230104 0.10041657 0.03389649 0.11943214 0.028174564 -0.03847088 -0.06991914
0.0794 -0.019302815 -0.061078325 0.09478992 0.023654565 0.07343149 -0.028401405 0.08006382
-0.03464505 0.10372122 0.04857424 0.066093326 0.110932216 -0.04472834 -0.059302643 -0.013746917
-0.11220789 -0.092633486 -0.08281016 0.12005998 -0.030737922 0.05131878 -0.114406705 -0.11079915
-0.005161971 0.042101666 -0.10881965 0.11693855 0.10111809 0.042749748 -0.10605839 -0.006054312
-0.038841546 -0.03004773 -0.08745821 -0.0025318116 0.1128501 -0.0021887869 -0.02557005 -0.071403965
0.10301934 -0.11860809 -0.05493252 -0.06688912 0.07827912 -0.09328811 -0.095528826 -0.0625478
-0.067662284 -0.039339304 0.057709366 0.085059896 -0.124985084 -0.059732497 -0.057558358 -0.020737544
0.03875208 -0.09259282 0.020454928 0.022354335 -0.11532904 -0.020464405 0.081239894 -0.03810878
0.054808497 -0.03605269 -0.07520683 -0.039386332 -0.109191224 0.050139785 0.09866354 0.07240452
-0.117564976 -0.060873643 -0.004408732 0.09418057 0.08116123 0.08063896 -0.11229092 0.09676485
-0.042755544 0.054129824 -0.035223976 -0.055746645 0.0420641 0.033789232 0.0020152181 -0.05718994
0.006310925 -0.043225378 -0.07025756 -0.08806142 0.008720905 0.03130527 -0.08530432 -0.05852741
-0.012538463 -0.1130286 0.09081957 -0.0772492 0.053267553 -0.091838256 0.09267588 0.04323876
0.09172188 0.0516887 -0.09963067 0.099928856 0.042277217 0.033588767 -0.026612714 -0.114070505
0.056121737 0.051432848 0.05214727 -0.016149193 0.023733005 -0.12386677 0.11646101 -0.09860952
0.062414795 -0.015368432 0.109029114 0.11207783 -0.007960334 -0.08195612 -0.07997598 -0.068240255
0.108940616 0.08670956 0.10102743 -0.024895474 0.07965802 -0.05950369 0.079368725 0.063630074
-0.0795517 0.06997149 -0.09294404 -0.09017071 -0.11966233 0.10177864 -0.083028615 -0.0397076
0.08550376 0.06737639 0.0663759 0.057949185 -0.074589565 0.07586016 -0.12412706 -0.09445794

rnn.bias_ih_l0 f4 [64]
00000000: a0e6 03bb 3c8a 803d e5ce c6bc 04be 803c
00000010: 2d9b c1bc 2310 89bd d62d 243d 4a94 b0bc
00000020: c77c e43d 36cf ca3d f0fc 12bd 8e29 8a3a
00000030: 517d eabd 00ce 6fbd 217b 9c3d 3f6c 153b
00000040: fe2a 1a3e 8835 c53d 4965 31bc 75b6 4bbd
00000050: 3046 a63d 9233 ac3d 51a2 e0bd a472 43bc
00000060: 806d 33bb 7346 79bc 903a 763d efb2 033e
00000070: 0175 90bd 63f5 fe3d fb68 813d f110 b7bd
00000080: 9ccf 4cbb 6c20 dcbc fc53 673d f996 08be
00000090: 06a5 03bd 510b 833d dfda f3bb 7a91 f73d
000000a0: ba36 c4bb d893 7d3c 61fb 8dbd 661f 04bc
000000b0: 9a99 e63d 3676 95bd a680 593b c638 90bd
000000c0: 52a4 c63c 61b6 1dbd 9717 b53d ca27 d5bd
000000d0: aa1f dbbd ddfa 68bb 1e23 8abd 8d56 283c
000000e0: c48a 9ebd 1f59 00be 2f97 dd3c 886b c6bd
000000f0: 89e6 493d 919b c53c 368c 5c3d 6acb d7bb
-0.0020126477 0.06276366 -0.024268577 0.015715607 -0.023633564 -0.06692531 0.040082775 -0.021555085
0.11156612 0.099028036 -0.03588575 0.0010540949 -0.114496835 -0.058546066 0.076406725 0.0022800115
0.15055463 0.09629351 -0.010827371 -0.04973455 0.08118856 0.08408274 -0.109684594 -0.011929188
-0.00273785 -0.01521455 0.060114443 0.12861226 -0.07053567 0.124491476 0.063188516 -0.08938778
-0.0031251675 -0.026870929 0.056476578 -0.13338841 -0.0321398 0.06398643 -0.007441863 0.12088294
-0.005987969 0.015477143 -0.06932712 -0.008064127 0.11259766 -0.072979376 0.0033188253 -0.07042079
0.024248276 -0.03850401 0.0884239 -0.1040798 -0.10699399 -0.0035549917 -0.06744979 0.010274542
-0.07741311 -0.12533997 0.027049629 -0.09688479 0.04929212 0.024122031 0.053844653 -0.006585528

rnn.bias_hh_l0 f4 [64]
00000000: 5ee5 a8bd 5a3a ae3d e5df 903d 1bc3 9a3d
00000010: 8bb7 95bd e4d6 df3d 4ee5 ac3d baa9 7ebb
00000020: 0948 5f3c b4a8 d6bd 55f5 d6bd 5117 efbd
00000030: 82ba d23b 8c2a d13c 1110 18be 63cc b33d
00000040: 6574 a93d 6289 97bd dee9 14bd 0446 003e
00000050: bda7 613c 008e 533d ff48 813c 7539 4cbc
00000060: 6e12 cabc 4108 b8bc 6738 a8bd 77d2 6abd
00000070: add6 3f3d 4803 043e f55c 5dbd 0f08 963d
00000080: d05e 3dbb d461 c6bd d8d1 17bd e629 66bc
00000090: a642 fe3d 1943 b83d 35f0 20bc 10dc 843b
000000a0: 0bfb 31bd 516a ad3d 80b8 b4bc 3188 01be
000000b0: 1840 8fbc 2e33 8ebc 384f 4dbc 0a7e a5bd
000000c0: 13d8 923d f678 113e 239b a03b 424e c33d
000000d0: 7806 b4bd c8af 683c 80cd e23d e86e d4bd
000000e0: 49c9 ea3c 27ef e8bc 4ad7 d6bd be2a 28bd
000000f0: d996 fdbd d2f6 8f3a 17ae c1bd 1b4b bbbd
-0.08246873 0.085072234 0.070739545 0.07556745 -0.07310399 0.10929659 0.08442174 -0.003885849
0.013628014 -0.10481396 -0.10496012 -0.11674369 0.006430925 0.025532983 -0.14849879 0.08779218
0.082741536 -0.073992506 -0.036355846 0.12526709 0.013772902 0.051649094 0.015781878 -0.012464871
-0.024666991 -0.022464873 -0.08213883 -0.05732962 0.04683559 0.12891877 -0.05404373 0.07325756
-0.0028895624 -0.09686628 -0.037065357 -0.014048075 0.12415056 0.08997173 -0.009822895 0.004054554
-0.043452304 0.08467544 -0.022060633 -0.12649609 -0.017486617 -0.017358389 -0.012531094 -0.08080681
0.07170119 0.14206299 0.0049013062 0.09536411 -0.08790296 0.014202066 0.11074352 -0.10372716
0.028660433 -0.02843435 -0.10490282 -0.041056387 -0.123822875 0.0010983592 -0.09457033 -0.091451846

rnn.weight_ih_l1 f4 [64, 64]
00000000: f835 893d 49dc 423e 5812 76bd 36c9 133d
00000010: c41a 793d 9125 5f3e 516b 063c 01d0 0dbe
00000020: d655 24be 4a20 223b 2294 c2bd 1a50 7fbd
00000030: a4cb 38be c980 e43d 3db1 dabd e6ca cb3d
00000040: 49f3 033d 1c2a 38bd a784 6dbd 4d56 a6bd
00000050: ec63 07be ab09 48be d1aa 5cbd 5df5 1d3e
00000060: 1fe6 35bd 87a0 2cbe 1a6b 3bbc 9078 c6bd
00000070: 932f 113e 34d5 c53c 10af 03be 4a9c 383e
00000080: 208d 56be 153c 1bbd 9468 553a ff21 33be
00000090: 07e4 d3bd c012 a1bd a241 203e b127 cabd
000000a0: c58a 733c 0144 813d 63b8 e5bd 5ec8 ce3a
000000b0: 633f e63d 2785 f7bc 0ef4 673d 074a b73d
000000c0: 2cf9 b03c edea 34bb 0fb3 093e e514 343c
000000d0: bd44 b5bc ad72 5c3c 3ee5 05be dbe9 8c3c
000000e0: e9bc 0c3e 4549 413c c4f4 ac3d 7f25 38be
000000f0: c44a 23be f43d 5fbd d856 f2bd 487b 37be
00000100: 98f5 02bd 8c58 a53b f083 2e3d d075 14be
00000110: 1c25 12bd cfbb 14be 5a5a d9bd 8150 87be
00000120: f074 da3c 421e a7bd 5a78 81be 9d1d 0fbd
00000130: 8a63 44bd b3ad 483e 7dfc aabd a07f b4bd
00000140: 7ec3 d6bc b15c 90bd 831b 503b 2607 8fbc
00000150: 450a 513d 9854 5a3d 79e3 89be a8aa 5ebe
00000160: 6f91 babd 83d3 3f3d c357 96be c5e6 b23d
00000170: bfbf 2a3e 34d1 373e 67a0 1cbe b364 043e
00000180: 367c d8bd 6192 cbbd e917 713d 7431 a6bd
00000190: 6f64 ffbc a06f f23d d05c 2cbe dfaf ba3d
000001a0: e000 8e3c 5af8 6dbe 0a1c 0c3e 6b88 8bbd
000001b0: 41c2 e1bd 5c0f 9b3c e0c7 2abc d8e2 5b3e
000001c0: bdf7 553e 0aca 803e 8cb4 8a3e 665f ca3d
000001d0: d6f4 3a3d 1f01 43bd 1bd0 9abd fb60 933d
000001e0: 4461 fbbb 466f 123e c69b 58bd 8487 893d
000001f0: 4020 e3bc b609 94bd 68a1 aabc edc3 543d
00000200: 9909 9b3d db89 04be 5473 02bd 0d85 66bd
00000210: 6faa 20be a236 c0bd b072 55be 8230 bc3c
00000220: 8424 a23d de7f 5bbe f3a3 6b3c b63e 47be
00000230: f1ea 023d 3c36 b73c bf58 efbd 3b89 b73b
00000240: 08f6 473d d945 95bc 7742 2ebe 82ed a33d
00000250: 396a 95bd be00 a7be b82c 3b3e d3b8 b43d
00000260: b8d3 18be d869 9dbd 7142 87bb 404b 583d
00000270: dd4e 2cbe 52d5 9e3d 8de3 3bbc 704e e1bc
00000280: dc67 cbbd 24e1 133c 3ea9 89bd ef63 8cbe
00000290: f4d3 09bc 3fe5 fc3c ea1f 9d3b c427 d43d
000002a0: a440 9bbd ba32 93bc 5bfa 723d d407 2f3e
000002b0: c812 ddbd 4d17 113d 1e2b fabd 67e3 8dbe
000002c0: 4bef 03bd 022a aebd 4951 96bd f0b9 f5bc
000002d0: adb1 0dbe 188c adbd c96d cabc e21e 0c3d
000002e0: 36a2 0ebe fa82 73bc 5d71 09be 04df 213e
000002f0: 835c 81bd 3676 7ebd 00ae 88be 9e80 8c3e
00000300: 5434 b03c 714a 46be b6b5 11be 63b2 d7bd
00000310: ac6e 1abe 4822 9bbe 0655 3fbe 0f28 3b3e
00000320: 0bdd 2b3e 2b7a 96bd 73fd 303d 7248 3abe
00000330: b0a0 53bc 6d4d d3bc 6e2c 66bc 79d4 1e3e
00000340: f8e4 16be 1358 3b3e d34e 6d3e 8e8b debd
00000350: b86f 023e e3d7 06be c4b5 57bd 2a65 803d
00000360: 5f7c 1dbe e964 10be 9c94 5fbe bde2 b4bd
00000370: d43f 753c fc36 62bc ed3d 17bd 7240 123d
00000380: 67cc ea3d d530 333e 78dc 91bd 15bf 603e
00000390: 97ae db3d e1f7 e33c d5b7 9c3d 9ff0 9bbd
000003a0: 2a4b 6a3e aeb4 6bbe ca73 063e 72db 2e3e
000003b0: 1903 17be 3c80 25bd 7d5f b53d 41f4 b3bd
000003c0: d47d 9fbd b525 83be 8056 b5bc cd80 423e
000003d0: 9fbe e93b 1e99 47bd db52 c8bb 49ad ccbd
000003e0: 9e3d 513d 6fce 353d ecb2 903d 6013 953d
000003f0: 714f 8c3d 153b 12be 5275 b8bd 9e79 abbd
0.06699747 0.19029345 -0.060076088 0.03608056 0.06081654 0.21791674 0.008204297 -0.13848878
-0.16048369 0.0024738484 -0.0950091 -0.06233225 -0.18046433 0.11157376 -0.10678337 0.09950809
0.032214437 -0.044962034 -0.057987835 -0.08121929 -0.13221711 -0.19534938 -0.05387384 0.1542563
-0.044408914 -0.16858111 -0.011439109 -0.09690964 0.14178304 0.024149515 -0.1285975 0.1802837
-0.20952272 -0.037899096 0.00081408885 -0.17493437 -0.10346227 -0.078649044 0.15650037 -0.09870852
0.014864628 0.06311799 -0.112168096 0.0015776267 0.11242559 -0.03021486 0.056629233 0.089496665
0.02160319 -0.0027605847 0.13447212 0.01099131 -0.022127504 0.013455075 -0.1307573 0.017201355
0.13743939 0.011797254 0.08445123 -0.17983054 -0.1594649 -0.054502442 -0.118329704 -0.17918122
-0.031972498 0.005045956 0.042606294 -0.14498067 -0.03567992 -0.14524768 -0.10612936 -0.26428607
0.026667088 -0.08160068 -0.25287133 -0.03494035 -0.04794649 0.19597511 -0.083489396 -0.08813405
-0.026216265 -0.070489295 0.003175468 -0.017459463 0.051035184 0.05330333 -0.2693136 -0.21744788
-0.091097705 0.046832573 -0.29363832 0.08735422 0.16674708 0.17950898 -0.15295564 0.12929039
-0.10570566 -0.09940029 0.058860693 -0.08114901 -0.03117582 0.11837697 -0.1683228 0.09115576
0.017334402 -0.2323927 0.13682571 -0.06813129 -0.11023379 0.018928222 -0.0104236305 0.21473253
0.20895286 0.25154144 0.2709087 0.09881477 0.04564365 -0.04760849 -0.07559224 0.07196232
-0.007671507 0.1430026 -0.052882932 0.06715301 -0.027725339 -0.07228415 -0.020828918 0.051944662
0.0757019 -0.12943213 -0.031848267 -0.05627923 -0.15690015 -0.093854204 -0.20844531 0.02297235
0.07917121 -0.21435496 0.01438235 -0.19457516 0.03196234 0.022364728 -0.11686849 0.005601076
0.048818618 -0.018221783 -0.17017542 0.080042854 -0.07295651 -0.32617754 0.18278778 0.08824315
-0.14924514 -0.07686204 -0.0041277935 0.05280614 -0.16826959 0.07755531 -0.011467827 -0.027503222
-0.09931919 0.009025846 -0.067217335 -0.27419993 -0.00841235 0.030871032 0.004795064 0.10359147
-0.075806886 -0.017968524 0.05932079 0.1709283 -0.10794598 0.035422612 -0.12215255 -0.27712557
-0.03221063 -0.08504106 -0.07339723 -0.029995888 -0.13837309 -0.084739864 -0.024710553 0.03420914
-0.13929066 -0.01486277 -0.13422151 0.1580773 -0.06316473 -0.062124453 -0.2669525 0.27441877
0.021509327 -0.19364335 -0.14229473 -0.105320714 -0.1508128 -0.30299592 -0.18684778 0.18277
0.1678354 -0.073475204 0.043210458 -0.18191698 -0.012916729 -0.025793755 -0.014048679 0.1551074
-0.14735782 0.18295316 0.231746 -0.10866462 0.1273793 -0.13168292 -0.05266358 0.062692955
-0.15379475 -0.14100994 -0.21834034 -0.088323094 0.014968831 -0.013807055 -0.03692429 0.03570599
0.11464768 0.17499097 -0.07122129 0.21947892 0.1072666 0.027828159 0.07652251 -0.07614254
0.22880235 -0.23018143 0.13130108 0.17075899 -0.14747275 -0.040405497 0.088561036 -0.08786822
-0.07787672 -0.25614706 -0.022135973 0.18994446 0.0071333195 -0.04873001 -0.0061133928 -0.09993989
0.051084153 0.044386324 0.07065377 0.07279086 0.0685109 -0.1428035 -0.09006752 -0.08372806

rnn.weight_hh_l1 f4 [64, 64]
00000000: 76ee ab3d 2493 e9bd 382f 94bc 806b 6c3c
00000010: c0b1 213d e089 ef3b 74c4 8cbd 7ed0 8bbd
00000020: 7848 9d3c 3c29 a9bd 20ef 7b3c 16d2 d0bd
00000030: b073 563c c0c8 65bd 74d3 5ebd f00c 7f3c
00000040: f8a3 b4bd 8c1f 15bd d028 d3bc 9844 6abd
00000050: 40c4 51bd 18b9 91bc 6a42 f83d 4816 763d
00000060: 14e4 83bd 54c5 0cbd 2813 c4bc 40ae b23b
00000070: 367b acbd da75 ad3d 20e8 12bd 4235 eebd
00000080: 9c6e 81bd 808b 0d3d 5085 e7bc a455 6cbd
00000090: 8497 433d 0ef2 d03d 2860 63bd 5295 85bd
000000a0: a69b 9b3d 302c 6abd f22d d73d a484 cd3d
000000b0: 4cca e53d 8091 7abd 30e4 e7bd e8d5 b7bc
000000c0: 4c4e ddbd dc52 51bd b05a 5e3c 00b9 ba3c
000000d0: e871 0ebd 380b 3e3d 0089 e2ba a04e 46bd
000000e0: de9a cc3d 208f 88bc a097 d8bd 766b d13d
000000f0: 24a8 cb3d fc09 913d 1e56 a63d 7881 de3c
00000100: d8ad cb3c 8a9b c0bd 34c9 323d 9648 8dbd
00000110: 00f0 64bc 10ef 7ebc 3449 55bd a8d8 93bc
00000120: ccec bb3d b89c 84bd 806c 5fbd e082 f9bb
00000130: 3495 3e3d 008d 00ba 90a8 8c3c b6e2 bc3d
00000140: a036 b7bc 2a4d dbbd b893 ef3c c49e d63d
00000150: 9213 a83d f8ca d03d 3c78 a5bd 7c4b 153d
00000160: 9890 9d3c bae9 833d 843e dfbd 8020 2dbc
00000170: 60d4 4ebc 3e7d f3bd 849e f43d 7c6b 69bd
00000180: 101d 3b3d 580d 8d3c b683 ad3d 68ab a03c
00000190: f09b cf3d 3a02 d9bd d8d7 39bd d282 f93d
000001a0: e846 083d 44d9 32bd d6d8 ee3d 988e ccbd
000001b0: b063 33bd 2cdb d4bd 681e c63c 9808 8ebd
000001c0: 50b5 dabd 5e47 abbd 02a0 c3bd 00ce 723c
000001d0: 80a2 d2bb e091 4d3d f2f4 f03d 82ef a6bd
000001e0: 1041 10bd 68c9 e33c 204d 54bd 40e9 513b
000001f0: 60df 5b3d 30aa 6c3c c05b 903b 0024 cbbc
00000200: 7846 063d 32c3 f4bd 80b4 0ebb e6ac a73d
00000210: f430 da3d 80c2 35bd 8a62 a03d 50b3 1fbc
00000220: 70a7 4dbc fa4d f43d 62f3 abbd d8a8 b93d
00000230: 1cc2 063d 507c 47bd c07a 073b c437 fc3d
00000240: 8048 c8bd 9ca5 f5bd c806 823d 446e e2bd
00000250: 661f cabd c08b d93c a04e cfbd 9843 e33c
00000260: c6a4 e93d 40a6 bf3c cc54 afbd 5486 113d
00000270: 1473 933d 100d 2f3d 0040 c737 78f7 2a3d
00000280: 509b db3c 9e1d c33d 2a39 c2bd 6897 553d
00000290: a615 b4bd d839 f9bd a8d3 debd c037 d03c
000002a0: 0479 6e3d 849e 4b3d 7498 fa3d 88a6 18bd
000002b0: 9c3a 26bd 302a 583c 480e 2dbd c093 1a3b
000002c0: 84d3 c9bd 08d7 a3bc 421d b43d 00a7 083c
000002d0: e011 c1bc 6e78 ccbd c04f bd3d 84be 2c3d
000002e0: 4680 b73d c017 773c e43e 7e3d d079 0b3c
000002f0: 6e03 9cbd 3828 d7bd d8fc a33d c07e 2e3b
00000300: 9017 e43c 7859 1d3d 0e0b d9bd 507e 53bd
00000310: 5089 883d 0cd4 2fbd ca41 fa3d 70d4 ab3c
00000320: fa91 9a3d 7035 c13c 00ca eebd 5ac0 8ebd
00000330: 289c 1b3d a850 af3d ac6c f2bd aa10 90bd
00000340: b07d cabd 0065 a2bd 7eae cd3d b0e3 53bc
00000350: 426c bb3d 4a10 833d 5645 92bd c665 c63d
00000360: 78d8 88bc e242 c1bd 12fb d63d 80c2 323d
00000370: 92c8 eabd 0c1e 79bd 783d 16bd c0bf 7ebc
00000380: 9cb0 843d 266e a53d a02a b73c 660a ea3d
00000390: cc15 e33d 0ead aa3d 807b 163c 28eb 86bd
000003a0: 3ac2 b73d c871 f03d 1432 7cbd bc7f 41bd
000003b0: a0f7 ca3b 40ad bcbb a410 2d3d 946e 8c3d
000003c0: a830 d8bd d063 483c e0d8 49bc 58f7 8d3d
000003d0: e057 a6bc d8f0 c13c 946f d2bd 9e79 b0bd
000003e0: 9094 63bd 0c3a 63bd 2a2d d4bd e4f0 12bd
000003f0: 3658 f93d 90c4 1e3d 24ad 5fbd 74c7 943d
0.08395092 -0.11405018 -0.018088922 0.014429927 0.039476156 0.007310137 -0.06873408 -0.06826876
0.019199595 -0.08259818 0.015376836 -0.10196321 0.0130891055 -0.056099653 -0.054400876 0.015567049
-0.08820337 -0.03640704 -0.025776297 -0.057194322 -0.05121255 -0.017788455 0.121220425 0.060079843
-0.06439987 -0.034367874 -0.023934916 0.005452901 -0.08421938 0.08469744 -0.035865903 -0.11631252
-0.06319925 0.034556866 -0.02826181 -0.05769886 0.04775192 0.10202418 -0.055511624 -0.06522621
0.07598047 -0.057171047 0.1050681 0.10035065 0.11220226 -0.061173916 -0.1132282 -0.022440866
-0.108059496 -0.05110441 0.013571426 0.022793293 -0.0347766 0.046397418 -0.0017283261 -0.048414826
0.09990476 -0.01666981 -0.10575795 0.10225575 0.0994418 0.070819825 0.08121894 0.027161345
0.024863169 -0.09404667 0.043648914 -0.0689861 -0.013973236 -0.015559927 -0.052071765 -0.018047646
0.09176025 -0.06475204 -0.054546833 -0.0076144785 0.04652901 -0.0004903823 0.01717022 0.09222929
-0.022364914 -0.10708077 0.029245242 0.10479501 0.08206858 0.10194963 -0.080795735 0.03644894
0.019233987 0.06441064 -0.10900596 -0.010566831 -0.012623876 -0.118891224 0.11944297 -0.05698727
0.045682013 0.017218277 0.084723875 0.019612983 0.101371646 -0.10596128 -0.04537186 0.12183155
0.033270746 -0.043664232 0.11662452 -0.09988135 -0.04379624 -0.10393366 0.02418442 -0.06935233
-0.10679114 -0.083632216 -0.095520034 0.014819622 -0.006428063 0.050187945 0.117654696 -0.08151151
-0.0352183 0.027805999 -0.051831365 0.0032029897 0.053679824 0.014444873 0.0044054687 -0.02479744
0.032782048 -0.11951293 -0.0021775067 0.08187275 0.10653868 -0.044374943 0.07831295 -0.009747341
-0.012552127 0.11928935 -0.08396031 0.090654075 0.03289996 -0.048702538 0.002067253 0.12315324
-0.09779453 -0.11994478 0.0634895 -0.11056188 -0.0986927 0.026555896 -0.101224184 0.027742192
0.11408381 0.023394704 -0.085610956 0.035528496 0.07199684 0.042737067 2.3752451e-05 0.04173991
0.026807457 0.095271334 -0.094835594 0.052146345 -0.087931916 -0.12169236 -0.10880214 0.025417209
0.05822088 0.04971172 0.122361094 -0.03726819 -0.040583238 0.013193652 -0.042249948 0.00235866
-0.098547965 -0.019999996 0.08794643 0.008340597 -0.023568094 -0.09983908 0.09243727 0.042173877
0.08960013 0.015081346 0.062071696 0.008512929 -0.07617842 -0.10505718 0.080072105 0.0026625842
0.027843267 0.038415402 -0.10597812 -0.051634133 0.06666815 -0.042926833 0.122195795 0.020975322
0.07547374 0.023585051 -0.11659622 -0.06970282 0.03799072 0.08560306 -0.11837134 -0.070344284
-0.09887254 -0.079294205 0.10043047 -0.012932703 0.09151508 0.06399591 -0.07142131 0.096873805
-0.016704783 -0.09436585 0.104971066 0.04364252 -0.11464037 -0.06081967 -0.036679715 -0.015548646
0.06478998 0.0807765 0.022359192 0.114277646 0.11088142 0.08333789 0.009184718 -0.06587821
0.08972593 0.11740452 -0.061571196 -0.047240958 0.00619407 -0.0057579577 0.042252198 0.068570286
-0.105561554 0.012230828 -0.012319773 0.06931943 -0.020305574 0.023674414 -0.10275188 -0.08616947
-0.055561602 -0.05547528 -0.10360177 -0.035874262 0.12175028 0.038761675 -0.05460848 0.07264605

rnn.bias_ih_l1 f4 [64]
00000000: fd86 d3bd 20c6 c3bc a27d ca3d 0169 99bd
00000010: 21a4 8f3d e368 363d 45c4 37bc abe8 6a3d
00000020: 02fd 42bd 29ae 8d3d 98c5 20be 3cbc f93c
00000030: 7509 f8bd f24c 203d 3a53 983d 760e f5bd
00000040: dc4b 70bd 23fa af3c 82a5 96bc 461a 693d
00000050: b698 00bd bad4 b9bd c5cf 3ebd b513 6abd
00000060: da7b 0b39 aaa5 bebd 58b6 bc3d 07a9 a43d
00000070: 9365 a33c 676b 6d3d f2d9 aa3d 4ec7 5c3d
00000080: 085b 7cbc a93a 0f3c 5aed d93c bfa0 ccbc
00000090: 7192 01bc 47f7 b4bc 1262 a33d bd86 873d
000000a0: 5afe 0a3e c612 6c3d b265 b13c 77e0 553d
000000b0: dafa a2bc 0da0 3b3c e2fe fd3d 98a9 963c
000000c0: de76 8a3d d6a0 13be a6b5 103d 062b d83c
000000d0: f838 98bd 3d54 dabd 73fe 18bd 351e 3abd
000000e0: 4e84 193d c9cf 93bc 1677 b33c 2dfe 7abc
000000f0: 1ace 47bd a757 4a3d 2145 c3bd 487b b6bc
-0.10328481 -0.023898184 0.09887244 -0.07490731 0.07013727 0.04453362 -0.011216228 0.057350796
-0.04760457 0.06917984 -0.15700376 0.030485265 -0.12111179 0.03913588 0.07437749 -0.11965649
-0.058666095 0.02148158 -0.018389467 0.056909822 -0.031395636 -0.090737775 -0.046584863 -0.0571477
0.00013302211 -0.09308942 0.09214467 0.08040052 0.019945895 0.057963755 0.08342351 0.05390101
-0.015402563 0.008742013 0.026602436 -0.024978993 -0.0079084495 -0.022090567 0.0797769 0.06617496
0.1357359 0.05763509 0.021654937 0.05221602 -0.019895006 0.011451733 0.12402131 0.018391415
0.06760953 -0.14416823 0.035329483 0.026387703 -0.07432741 -0.106605984 -0.037352037 -0.045438964
0.03747969 -0.018043416 0.02190737 -0.015319389 -0.04878054 0.049399998 -0.0953467 -0.022275582

rnn.bias_hh_l1 f4 [64]
00000000: 068a 0a3e 7550 25bd 3384 6abd 51a9 cc3d
00000010: a1ae 303d 4c3b 73bd 6b12 b33d 730d edbc
00000020: 30c1 aabd 07e9 aebd 9d2b 2c3d e8d0 bebb
00000030: 81fb c43c 1cf4 52bd 1d13 adbc bb8a 5b3d
00000040: e229 1c3d 330d 1fbd d5a6 e13d 35b9 15bc
00000050: 7345 9a3d 08e2 c23d 73e4 cd3b 301e b33c
00000060: a0d7 edbc f0bf a73d 4ccd a33c 59f0 c1bd
00000070: f41e debc f061 96bd 996c f2bd d3e5 ffbd
00000080: 5e35 2a3c 66c5 c1bd e6ec d8bd 70a9 233e
00000090: 529b 153d 63f7 c43c b885 f63b dbe4 16bd
000000a0: 0108 71bc 726c b9b9 a882 f6bd 06f7 02be
000000b0: 225c 19bd aa0b 9bbd 2096 8ebd 4b42 d5bc
000000c0: 275b b63c 28ec a3bd 42ba fabb 5d4e d0bc
000000d0: de63 0e3e 32df 463d 976c 9f3b ade6 1cbc
000000e0: fadb b5bd 777a 5ebc 6705 ccbd 7668 f43c
000000f0: ffd5 9f3d 55dd 58bd 4765 b33d 925c eb3d
0.13529214 -0.040359933 -0.05725498 0.09993232 0.04313529 -0.05938272 0.08743747 -0.028937077
-0.08337629 -0.0854054 0.04203378 -0.0058232434 0.024045708 -0.051502332 -0.021127278 0.0535991
0.03812588 -0.038830947 0.11018149 -0.009138395 0.07532778 0.09515768 0.006283337 0.02186498
-0.029033482 0.08190906 0.019995354 -0.09469671 -0.027114369 -0.07342899 -0.118371196 -0.12495007
0.0103887 -0.09461479 -0.1059206 0.15982604 0.036525078 0.024043744 0.0075232647 -0.036839347
-0.014711381 -0.00035366748 -0.120366395 -0.12789544 -0.03744138 -0.07570584 -0.06962228 -0.026032588
0.022260262 -0.080040276 -0.007651598 -0.025427992 0.13905284 0.0485527 0.00486524 -0.009576482
-0.08879848 -0.013579003 -0.09961968 0.029834967 0.078044884 -0.052945454 0.087595515 0.11492266

fc.weight f4 [37, 64]
00000000: 87eb 1bbe 3b1f 99ba 1a1a 993e fe58 1c3e
00000010: ed56 81be 2595 ab3e f6a4 653d 46bd 01be
00000020: b5a4 1b3e d891 9e3d 2684 523d bed6 683e
00000030: 6704 093e 2ef0 85bd 9da5 4d3e e320 6e3e
00000040: 26eb e9bd 7de0 babc ec7b 26be ef98 86bd
00000050: aa8e 6bbe 2059 24be 0eb4 203c 7d64 a23e
00000060: 766e 693e a2bc 32be 57b3 dabc c85f 5a3c
00000070: 18eb 1abe 83d1 06bd e63e 1d3d 5d9b ce3d
00000080: 44dd 503e f362 1a3f 7859 2bbe f434 3abe
00000090: 0a49 8e3d a22c cb3d 987d b03e d757 2bbd
000000a0: f6ca 423e d59b 053e c32d d5be 8cae 9cbd
000000b0: 5fa0 44be 9063 533e 550f 9c3d 1b2d 0dbc
000000c0: 071b 2c3d 3854 54be aabd 68bd 7bd8 b43d
000000d0: cbb4 bc3d e9f0 7b3e abf9 14be 5b8e c6bd
000000e0: dab3 4c3d 34dd 9b3e a6d3 64bd d1bb abbd
000000f0: b722 13be 563e 1b3e 87e3 5ebd 7c8e b73e
00000100: 0760 0a3e 11df 013e 1721 4f3e ae7f 7c3e
00000110: 735c 7abd 21db b53d 3289 e2bc 4c81 0fbc
00000120: 0e3e 6abe ede3 923d 3270 323e b37d 0abe
00000130: 14c6 0f3e d56c bdbc 85c7 e63d ff26 eebd
00000140: 965d 413e 2ba5 a83e bcb1 e03d e3c0 1bbe
00000150: 983d 04bd ddd9 65be 830b b5bd b76d 9dbe
00000160: d4cb fcbd 8fcf 3b3e 76b8 1fbe f1c2 b3bd
00000170: db80 1cbd 97f6 033d 1812 263e f0e3 503e
00000180: 60c1 10bc e17b 6dbe 867f 4dbd 4714 73be
00000190: 1503 25be f9cf e6bc 3dfb 1d3e 38c2 283d
000001a0: 2e01 3cbe 8f59 5ebd 9ad8 413d 5226 673e
000001b0: 5b97 643d 3be6 313e a9a3 69be 5c9f 803c
000001c0: 1e04 613d 8faf 70bc 173f 17be 79ed 01bd
000001d0: cd43 babc 8aca 873e 39a3 1abe f383 063e
000001e0: db90 0dbe e5c4 47be 1a50 16be 4b48 833d
000001f0: bd14 0e3e 2a08 70be 0d3c 4fbe 36fb 483e
00000200: ab54 30be 69cb bbbd 3d38 873e 9eee 7b3e
00000210: 01bd b23e 8509 803e 68b8 4f3e 0077 f73d
00000220: 77c8 5fbe ae1b 1b3e c606 a0be 2075 8ebe
00000230: 0758 133d cbb0 39be fc40 873e 491e 4dbe
00000240: 1d33 fd3d 32b7 3d3d d95e a23e 6f6e b23e
00000250: 378b 3bbe dcc2 f4bc ce03 30be 633c 88be
00000260: 40d3 823b ced4 b53d 5f15 b53e cc37 73be
00000270: 2eb2 2ebe 23ef 9ebd 6fb2 143c 7b3e c83d
00000280: 7806 7e3e a325 96be c14b eebd ff95 893e
00000290: daf7 913e d8e8 11be 609d 8c3e 8420 2c3e
000002a0: fbbd 213e c941 423e 58fd 3cbe 9ccc da3c
000002b0: 75cc 9dbe 472a 723e 0bac d1bd 3a21 5fbe
000002c0: 7758 74be ba1c 67be 2dea 4a3e d912 b43d
000002d0: 1a31 833e c2b1 323e ed48 febc fb0e 54be
000002e0: 9395 29be acd7 bb3e 2f92 fdbd 78e0 6a3e
000002f0: 90bb 623e ad50 a43e ec89 67bd d2cc d03d
00000300: b78b 0b3e 9b5f 243d 48f2 413e 61b1 d43d
00000310: 5aed a2be 6255 573e f7e6 56be 1ecb de3d
00000320: 961d 6fbe 8ea2 6f3e dbce 073e 132a 5bbd
00000330: 1af0 db3d 9768 4d3e 7a05 87be be0b 35be
00000340: e09d e83d 88ba 243e d6e8 803e 235d 4abe
00000350: 4251 99bd a133 23be 181d 26be 4c0b 33be
00000360: c6e4 adba e14e 0d3e 6f5e 57bd dde9 7abd
00000370: d28a f0bd 320e 37be ad92 393e 0434 463e
00000380: 6332 3ebd 78db 3fbe 3aa0 c4bd bd90 3cbe
00000390: 5b2b bcbc 4228 59be 548c 463d 941a cdba
000003a0: ba25 fcbd 4d8a f4bc 2f25 2d3e 6f30 5d3e
000003b0: 1692 293e 80e4 0d3e afd7 49bd c139 4dbe
000003c0: cf4a 8e3e eb9a 4d3e 0be8 17be b1ac 063e
000003d0: b239 cfbd b56c 523e c6dd 59be e3f8 2f3e
000003e0: 6676 06be 90c1 34be 5e1e 08be f18c 37be
000003f0: e08b 4e3e 71a7 08bd d11f 913c 8cc6 3a3e
-0.15226565 -0.0011682281 0.29902726 0.15268323 -0.25261632 0.33512226 0.056065522 -0.12669858
0.1519955 0.07742661 0.051395558 0.22738168 0.13380586 -0.06539951 0.20082708 0.23254733
-0.11421804 -0.022812122 -0.1625821 -0.065721385 -0.23003641 -0.16049623 0.009808553 0.3171729
0.22796044 -0.1745477 -0.026696844 0.0133285 -0.15128744 -0.03291465 0.038390063 0.10088227
0.20396906 0.60307235 -0.16733348 -0.18184263 0.06947525 0.099206224 0.3447082 -0.041831817
0.19022736 0.13047726 -0.41636476 -0.0765048 -0.19201802 0.20643449 0.07620112 -0.008616711
0.042017963 -0.20735252 -0.056821503 0.08830353 0.09214171 0.24603619 -0.14548366 -0.09695121
0.049976207 0.30442202 -0.055865906 -0.083854325 -0.14368711 0.15160498 -0.054416206 0.35850894
0.13513194 0.1268275 0.20227467 0.24658081 -0.061123323 0.08879686 -0.02765331 -0.008758854
-0.22875234 0.0717238 0.17425612 -0.13524513 0.14040405 -0.023123184 0.11268524 -0.11628532
0.18883356 0.32938513 0.109714 -0.15210299 -0.032285303 -0.2244639 -0.08840086 -0.30747768
-0.12343565 0.18340896 -0.1559771 -0.087774165 -0.038208824 0.03221759 0.1621784 0.20399451
-0.008835167 -0.23191787 -0.050170444 -0.23738204 -0.16114457 -0.028175341 0.15427871 0.041200846
-0.18359825 -0.05428463 0.047325708 0.22573212 0.055808406 0.17372982 -0.22816338 0.015700988
0.054935567 -0.014690294 -0.1477016 -0.031720612 -0.022737408 0.26521713 -0.15101327 0.13136272
-0.13824789 -0.19508703 -0.14678994 0.06410273 0.13875099 -0.23440614 -0.20237751 0.1962708
-0.17219798 -0.09169657 0.26410094 0.24602744 0.34909824 0.25007263 0.20285189 0.12083244
-0.21853815 0.15147278 -0.31255168 -0.27823734 0.03597262 -0.18133847 0.26416767 -0.20031084
0.12363265 0.046317287 0.31712988 0.3484988 -0.18314825 -0.029878072 -0.17188951 -0.2660857
0.003992468 0.0887848 0.35367867 -0.23751754 -0.17060158 -0.077604555 0.009075745 0.09777542
0.24807155 -0.2932559 -0.11635543 0.2687225 0.28509408 -0.14248979 0.27463818 0.16809279
0.15795128 0.18970408 -0.18456018 0.026708893 -0.3082005 0.2364894 -0.10237893 -0.21790019
-0.23861872 -0.22569552 0.19815893 0.087926574 0.256234 0.17450622 -0.031040633 -0.2070884
-0.16560964 0.36687982 -0.12381398 0.2293719 0.22141862 0.320928 -0.056528017 0.101953164
0.13627516 0.04013024 0.18940079 0.10385395 -0.3182171 0.21028665 -0.20986544 0.10878585
-0.2335113 0.23401853 0.13262503 -0.053506922 0.10739155 0.20059429 -0.26371366 -0.1768026
0.11358237 0.16086781 0.2517764 -0.19762091 -0.07486202 -0.15937664 -0.16222036 -0.17484778
-0.0013267032 0.13799621 -0.052580293 -0.061258186 -0.11745228 -0.17876509 0.18122359 0.1935578
-0.04643477 -0.18736064 -0.09600873 -0.18414588 -0.022969892 -0.21206763 0.04847367 -0.001564818
-0.12311883 -0.029851103 0.16908716 0.21600507 0.16559634 0.13856697 -0.049277958 -0.20041563
0.2779145 0.20078628 -0.14834611 0.13151814 -0.101184264 0.20549281 -0.21276006 0.17184786
-0.13131103 -0.17651963 -0.13292834 -0.17924859 0.20170546 -0.03336281 0.017715367 0.18239802

fc.bias f4 [37]
00000000: da40 adbc 8b24 8c3d 931d 133e 1409 9cbd
00000010: ee7c 9f3c f7cd f43d 0577 07be c3f5 573d
00000020: 1cef c23c 552e 763d fa41 19be be43 a2bd
00000030: 2138 a1bd ca9d 0bbe 9552 7fbc 5198 81bd
00000040: 0a8a 6bbd b68b 553d 9ceb 07bc ec5d 4f3d
00000050: cc7d d4bd e6c0 c53c e4a8 afbc abdc 3d3e
00000060: 0820 00be 96b3 01bd 7a50 86bd 6696 d4bc
00000070: e71b 6dba 66a3 f93d ff40 59bd 67d2 0dbd
00000080: 5d2f 59bd 63bc b1bc eacc 1d3d cd02 22bc
00000090: f811 c23d
-0.021149088 0.068429075 0.1436675 -0.07618919 0.01946875 0.11953347 -0.13228996 0.05272461
0.023795657 0.06010278 -0.14966574 -0.07923077 -0.07872034 -0.1363441 -0.015583654 -0.0632788
-0.05750469 0.05213519 -0.00829592 0.05062668 -0.10375556 0.024139833 -0.021442838 0.1854121
-0.12512219 -0.031665407 -0.065583184 -0.025950622 -0.00090449903 0.12189369 -0.0530405 -0.034624483
-0.053023685 -0.021696275 0.0385255 -0.009888363 0.094760835

exp_avg f4 [64, 37]
00000000: 3c73 81b9 da25 c038 b08d 1239 d2d5 55b8
00000010: 2689 c338 8b4a 04b9 c77f 5d38 b43e adb9
00000020: 6a0d c139 c432 8139 74a7 ffb8 8a3c 1239
00000030: 666a b6b8 8aa4 7238 a4d7 17b9 e8e6 6cb7
00000040: 881d 9837 8da2 8bb9 7c13 b9b7 2e65 7338
00000050: 30d7 e8b5 3627 1bb8 384b e7b8 bc3b 2d38
00000060: 9d6c a838 a0bd f937 d359 f2b7 4555 e337
00000070: d042 7b38 afd8 5839 37eb 1f39 9c59 6339
00000080: 6e29 c2b8 b4af 3cb8 db44 d8b8 f893 3bb6
00000090: a054 a7b8 66be 45b9 6a0c b5b8 9c24 1a39
000000a0: 1268 44b8 2083 1d39 c7e3 d4b8 1664 6438
000000b0: a468 61b9 5396 5439 3b5b 4a38 13ec b9b8
000000c0: b1de 79b8 7d1c b7b8 ac26 5839 94ca ec38
000000d0: 8f2e 43b9 ffd5 8ab8 1c05 09b9 0078 d6b8
000000e0: 9cea 0437 e6ba 3438 cf62 fe37 c3cf 38b8
000000f0: 42be f238 cc4d b938 6c8a aa39 e982 f2b7
00000100: f358 80b8 e1f7 40b8 3eea 0f38 b426 b7b9
00000110: d6ca 5fb9 b82b f038 ec68 6336 7461 a3b8
00000120: 186f 3739 d2bd 4e38 a8fd f039 6830 b0b9
00000130: 9bf8 91b9 4236 6db8 6589 21ba becd 71b7
00000140: 0588 3b39 9a99 b739 e69b 4cba f85a 46ba
00000150: 48ff ad38 789a a3b8 c2f4 a638 8cdc aeb9
00000160: 82ff 8438 a146 0539 6e10 b739 53c8 b239
00000170: d645 6038 3cfa 04b9 8c9b b0b8 3076 fe38
00000180: 34d9 ee39 1526 5bb9 bc2e e0b8 2a96 8fb9
00000190: 715f 0b39 2452 31b8 91e7 1eb9 010b c7b8
000001a0: 778a 0b39 7ef6 b9b7 4ab1 2338 1914 14b9
000001b0: 2203 19b8 9861 1b37 7f60 54b9 1458 b3b8
000001c0: e561 3cb9 ef44 cb37 b1d6 ecb7 2032 2ab9
000001d0: 1ea8 f1b8 2067 1939 5daa 45b8 9ec0 f2b8
000001e0: cdad 77b9 e492 50b6 0d5d e737 1e59 9337
000001f0: 4ede bc37 c02f b138 dc1c 6eb7 c254 6039
00000200: 682b 46b9 106a 36b9 4611 b738 e677 e0b6
00000210: 09cc 4937 7ed2 51b8 b812 6438 26c2 16b7
00000220: ecf1 9d39 9639 6539 76dd 2db9 a685 04b9
00000230: 455e ddb8 cada 1cba 693b c437 2379 7f38
00000240: a0fd 39b8 4461 8e37 3715 3d39 1b60 5939
00000250: 7a9a b637 124c e538 594e ebb7 175d eab8
00000260: 6f67 e138 ac21 5639 3bbd a3b9 4e64 e838
00000270: 534a 8738 f8da a639 15af 0ab9 0e82 32b9
00000280: b671 2db9 bf87 eab8 6290 23b9 028b 5838
00000290: c688 cc38 7e4e e438 0c97 7e38 0665 0339
000002a0: b137 03b8 6f3d 7738 92bd d636 6a6e 49b9
000002b0: f4e1 c237 4d79 e2b9 5c01 73b9 aee1 09b8
000002c0: dfbc be38 71a1 2b39 4b38 f039 0644 d037
000002d0: 0f16 5a39 20cb 74b8 827e 80b8 c515 76b8
000002e0: d0c5 eab8 da74 99b8 1ad6 1bb9 72a5 fb37
000002f0: ba51 c3b7 636a 2cb9 63f5 2eb9 e4a2 5a39
00000300: d267 eeb8 d237 a0b8 6313 64b9 d2d7 9cb6
00000310: 24b6 3838 0457 3037 ded8 4637 5903 c9b6
00000320: b7aa 3bb9 a0ca dfb8 46cc eb37 c0f3 4cb6
00000330: efca bf38 0f98 8837 f18c 9937 22f1 a138
00000340: de60 38b7 c633 ff37 900e 3bb6 d7a8 ea38
00000350: 3e5d 28b9 38fb f037 d690 35b6 c00e 30b5
00000360: 6d5c 9e38 78e1 d9b7 0cc1 4937 5b88 15b8
00000370: f507 1d38 80d7 a8b6 1e32 38b9 82ab 0038
00000380: 1bc7 e538 0968 d7b8 1189 6539 25ee ce37
00000390: ae49 52b9 b2ad 69b8 42b2 6239 e550 8339
000003a0: e14b 0bb9 ab2e 35b9 bac1 30b9 47ea 3438
000003b0: ee78 64b8 947e 5eb6 aaa5 9938 62b2 df38
000003c0: 4815 f136 99f4 6b39 cbfe 1238 7b66 0039
000003d0: 02f4 0eb7 6cc4 0c39 56eb 4cb7 b50b 3bb9
000003e0: bf59 7e38 beef 2bb8 d395 7038 90fa 76b7
000003f0: ef28 d2b8 8a6e abb8 47e8 1b38 71ca 25b9
-0.00024690654 9.162324e-05 0.00013976428 -5.0982293e-05 9.3238705e-05 -0.0001261627 5.2809508e-05 -0.0003304385
0.00036821823 0.0002464262 -0.00012190538 0.00013946198 -8.6982545e-05 5.7850535e-05 -0.00014480815 -1.4120458e-05
1.8133564e-05 -0.00026633256 -2.2062792e-05 5.8029946e-05 -1.7347975e-06 -3.6991398e-05 -0.00011028949 4.1302046e-05
8.031095e-05 2.9771414e-05 -2.8890476e-05 2.7100215e-05 5.9905287e-05 0.00020680086 0.00015251046 0.00021681789
-9.258358e-05 -4.498633e-05 -0.00010312508 -2.79513e-06 -7.978943e-05 -0.00018858313 -8.633065e-05 0.00014700223
-4.6826965e-05 0.00015021535 -0.000101513746 5.445265e-05 -0.00021496654 0.00020273896 4.8245518e-05 -8.86546e-05
-5.9573624e-05 -8.731426e-05 0.00020613772 0.0001129109 -0.00018613994 -6.620213e-05 -0.00013067242 -0.00010226667
7.922437e-06 4.3089407e-05 3.032517e-05 -4.406251e-05 0.000115748975 8.835978e-05 0.0003252806 -2.8909608e-05
-6.120084e-05 -4.6007222e-05 3.4312012e-05 -0.00034933316 -0.000213425 0.00011452235 3.3886708e-06 -7.790598e-05
0.00017493626 4.929101e-05 0.00045965356 -0.000336054 -0.0002784178 -5.6555735e-05 -0.0006162136 -1.44126225e-05
0.00017884381 0.00035018922 -0.0007805213 -0.0007566656 8.296833e-05 -7.801218e-05 7.9610865e-05 -0.00033352186
6.3418425e-05 0.0001271018 0.0003491672 0.0003410006 5.34708e-05 -0.0001268172 -8.421307e-05 0.00012133678
0.00045556726 -0.00020899654 -0.00010689857 -0.00027386966 0.00013291628 -4.2276588e-05 -0.0001515432 -9.491109e-05
0.00013307655 -2.21685e-05 3.902734e-05 -0.00014121867 -3.648096e-05 9.261443e-06 -0.00020253843 -8.551791e-05
-0.00017965546 2.4231585e-05 -2.8233366e-05 -0.00016231136 -0.0001152309 0.00014629634 -4.7127123e-05 -0.00011575337
-0.00023620501 -3.1079917e-06 2.7580676e-05 1.7565264e-05 2.2514865e-05 8.448912e-05 -1.4192625e-05 0.0002139388
-0.00018898922 -0.00017396384 8.7293374e-05 -6.6896782e-06 1.2028039e-05 -5.002552e-05 5.437687e-05 -8.9859e-06
0.0003012562 0.00021860594 -0.00016581066 -0.00012638289 -0.0001055566 -0.000598353 2.3392686e-05 6.0909555e-05
-4.4343644e-05 1.6973012e-05 0.00018032348 0.00020730535 2.1768024e-05 0.0001093374 -2.8050667e-05 -0.00011175329
0.00010748102 0.00020421174 -0.0003123077 0.00011081305 6.4511456e-05 0.00031825132 -0.00013225929 -0.00017023852
-0.00016540926 -0.00011183274 -0.00015598678 5.1627874e-05 9.752954e-05 0.000108865075 6.0698992e-05 0.00012530768
-3.12847e-05 5.8946604e-05 6.399766e-06 -0.00019209986 2.323182e-05 -0.00043196455 -0.00023174792 -3.2873526e-05
9.095086e-05 0.00016367972 0.0004581831 2.4827208e-05 0.00020798318 -5.836331e-05 -6.1270795e-05 -5.8671245e-05
-0.00011194835 -7.317374e-05 -0.00014861711 2.9998573e-05 -2.3283868e-05 -0.0001644283 -0.00016685347 0.00020850782
-0.000113680624 -7.639792e-05 -0.00021750997 -4.674287e-06 4.403865e-05 1.0510677e-05 1.1852213e-05 -5.9906565e-06
-0.00017897306 -0.000106712105 2.8109305e-05 -3.054025e-06 9.145389e-05 1.6283271e-05 1.8304652e-05 7.721993e-05
-1.0989808e-05 3.0422478e-05 -2.7873648e-06 0.000111894384 -0.00016056464 2.8727212e-05 -2.7055407e-06 -6.5586573e-07
7.551243e-05 -2.5973408e-05 1.2025481e-05 -3.565136e-05 3.7439127e-05 -5.0318777e-06 -0.00017566278 3.0677307e-05
0.00010956657 -0.00010271377 0.00021890203 2.4668008e-05 -0.00020054608 -5.5713295e-05 0.00021619446 0.00025046538
-0.0001328434 -0.0001727889 -0.00016856837 4.3133532e-05 -5.447206e-05 -3.3154256e-06 7.326466e-05 0.00010666695
7.184837e-06 0.00022502466 3.5046407e-05 0.00012245208 -8.520672e-06 0.00013424613 -1.2214141e-05 -0.00017838071
6.06419e-05 -4.0992854e-05 5.7359994e-05 -1.4721081e-05 -0.00010021205 -8.174505e-05 3.7171205e-05 -0.00015811042
