project_2/results/exp_0/lightning_logs/version_19/checkpoints/epoch=99-step=23400.ckpt (torch, 59381 bytes, 9 tensors)

lstm_arch.weight_ih_l0 f4 [144, 36]
0	0xbdccf607	-0.100078635
1	0x3cdae1c4	0.026718982
2	0xbda23017	-0.07919329
3	0xbdc2c620	-0.095104456
4	0x3e040926	0.12894115
5	0x3df20938	0.118181646
6	0xbe5b0c59	-0.21391429
7	0x3df4cb48	0.11952835
8	0x3cd63d81	0.026152374
9	0x3d41a93f	0.047280546
10	0xbe06c3b1	-0.13160588
11	0x3e1af522	0.15132573
12	0x3b917223	0.004438655
13	0x3de82142	0.113344684
14	0x3ddaaf5b	0.10677978
15	0xbe006c51	-0.1254132
16	0xbdd99cd1	-0.106256135
17	0x3c2ab3c0	0.010418832
18	0x3e1b1062	0.15142968
19	0xbd8cce56	-0.06875293
20	0xbe1555c8	-0.14583504
21	0xbb7598e3	-0.003747516
22	0xbcc0cc62	-0.023534957
23	0xbe45219d	-0.19251104
24	0xbc8819ad	-0.016613806
25	0xbe1d5260	-0.15363455
26	0xbe0c29d4	-0.13687831
27	0xbdab89d1	-0.08375896
28	0xbd74d513	-0.059773516
29	0xbd35f0af	-0.044418987
30	0x3d3c0030	0.045898616
31	0xbcc2576f	-0.023723332
32	0x3da667ac	0.081252426
33	0xbdc38385	-0.0954657
34	0xbd47e6e1	-0.048804168
35	0x3cd890d8	0.026436254
36	0x3ddd6f93	0.10812297
37	0xbe6a1cf9	-0.22862615
38	0xbd275dc9	-0.040860925
39	0xbe0c962b	-0.1372916
40	0xbe614283	-0.21998028
41	0x3ddd5776	0.108076975
42	0x3db0b812	0.086288586
43	0xbc8f65ca	-0.017504591
44	0xbe47bb67	-0.19505082
45	0x3cfea4ab	0.03108438
46	0x3da579b2	0.08079852
47	0x3ca2c027	0.019867016
48	0xbe2f53a3	-0.17121749
49	0xbd3c0e96	-0.045912348
50	0xbbdc7483	-0.0067277565
51	0xbd8eb9bd	-0.069690205
52	0xbd49744c	-0.049183175
53	0xbc8ecb95	-0.01743106
54	0x3e0ea665	0.13930662
55	0x3d4bdc17	0.04977044
56	0xbe145288	-0.14484608
57	0xbd80eb12	-0.06294836
58	0xbd886426	-0.06659727
59	0x3d4df5db	0.050283294
60	0x3e03d248	0.12873185
61	0xbd490236	-0.049074374
62	0xbd6d61e9	-0.057954703
63	0xbd836396	-0.06415479
64	0xbc873967	-0.016506864
65	0xbd1c98c7	-0.038231637
66	0xbdf1ecb6	-0.11812727
67	0x3e262aa1	0.16227199
68	0xbd510520	-0.05103028
69	0x3dba7f20	0.091062784
70	0xbda8ba22	-0.08238627
71	0xbdbcd0b9	-0.09219498
72	0x3a82b67c	0.0009972597
73	0x3d22ccdd	0.039746154
74	0x3c660c55	0.014041026
75	0x3d60bc99	0.05486736
76	0x3c8f14cc	0.017465971
77	0x3d50a189	0.050935302
78	0xbdfb879c	-0.12281725
79	0x3e133f69	0.14379658
80	0x3db92bb2	0.09041537
81	0xbdf2b6df	-0.11851286
82	0x3d51b934	0.051202014
83	0x3b4be151	0.003110964
84	0xbdbe8f5b	-0.09304687
85	0xbcbb0b43	-0.022832518
86	0xbe232dcc	-0.15935439
87	0xbe2ada51	-0.16684844
88	0xbdf966e7	-0.1217783
89	0xbdb9a873	-0.09065332
90	0xbe0518a6	-0.12997684
91	0xbe18350f	-0.1486399
92	0x3e16d929	0.14731278
93	0x3e1bd6be	0.15218636
94	0x3c356a35	0.011072685
95	0xbe1116bf	-0.14168833
96	0xbd7907b2	-0.060798354
97	0xbd847cf3	-0.06469145
98	0xbdb20e58	-0.08694142
99	0xbc9820fd	-0.018570418
100	0xbd52257b	-0.051305275
101	0x3d51ec7b	0.051250916
102	0xbd9f4526	-0.07776861
103	0x3d2c45f5	0.042058904
104	0xbcf89eed	-0.03034922
105	0x3e05ff35	0.13085635
106	0x3e0d849a	0.13820115
107	0xbd9fae1b	-0.0779688
108	0x3d988734	0.07447663
109	0xbe24eda7	-0.16106282
110	0x3d00a39c	0.03140603
111	0x3e03a61f	0.12856339
112	0xbdb76cb5	-0.08956281
113	0x3de2cb3c	0.1107392
114	0x3cd973dc	0.026544504
115	0xbd9da64d	-0.07697735
116	0x3c093164	0.008373592
117	0xbd84d7ba	-0.06486459
118	0xbe3dd469	-0.1853806
119	0x3d8f9c15	0.07012192
120	0xbd169a8c	-0.03676848
121	0xbdf673b8	-0.1203379
122	0x3e176d96	0.14787897
123	0xbd86be8b	-0.06579312
124	0x3e0483fe	0.12940976
125	0x3e1feb05	0.15616997
126	0xbd74aba2	-0.059733994
127	0xbcd65a58	-0.026166126
128	0xbd1b1d27	-0.0378696
129	0xbe25e860	-0.16201925
130	0xbcc50d56	-0.02405421
131	0xbe1e6642	-0.15468696
132	0x3df5e056	0.12005679
133	0x3e01bf4b	0.12670629
134	0xbc820441	-0.015871169
135	0xbda5bb17	-0.08092325
136	0xbd318fbf	-0.043349978
137	0xbdc7b3c6	-0.09751086
138	0x3e2337b9	0.15939225
139	0xbcd822e5	-0.026383827
140	0xbdfcfce8	-0.123529255
141	0x3df7f39b	0.12107011
142	0x3d56bfcb	0.052429
143	0x3d9d8338	0.076910436
144	0x3d8a72dc	0.06760189
145	0x3d4eaebc	0.05045961
146	0xbcf27749	-0.029597895
147	0x3d9e303e	0.07724045
148	0xbe1ebdc5	-0.15502079
149	0x3de7abbd	0.11312053
150	0xbd04ed3b	-0.032452803
151	0xbdf59b25	-0.11992482
152	0xbd2e3d2f	-0.042538818
153	0xbe2d95bb	-0.16951649
154	0x3d6b22ed	0.057406355
155	0x3db0b9a7	0.086291604
156	0xbca630ca	-0.020286936
157	0x3e04aff2	0.12957743
158	0xbdd56d11	-0.104211934
159	0xbe17957d	-0.14803119
160	0xbe8456ff	-0.25847623
161	0xbe25ebb4	-0.16203195
162	0x3dfbdcb8	0.12297958
163	0xbdc602b1	-0.09668482
164	0x3e044587	0.12917148
165	0xbde9fe18	-0.11425418
166	0xbdacf710	-0.08445561
167	0x3d1d6484	0.038425937
168	0x3d633365	0.055468936
169	0xbe2fd8a3	-0.17172484
170	0x3d206827	0.039161827
171	0xbd7b3d41	-0.061337713
172	0xbd720b76	-0.05909296
173	0x3d405bd3	0.04696257
174	0xbde3998e	-0.111132726
175	0x3dc733da	0.09726687
176	0xbd3eabe0	-0.04655063
177	0x3d7a9017	0.06117257
178	0xbd25ac8f	-0.040447768
179	0xbdb29171	-0.08719147
180	0x3ca6e0d6	0.020370882
181	0x3d4a6662	0.049414046
182	0xbddc5435	-0.10758249
183	0xbe4f198b	-0.20224588
184	0xbe48b2b0	-0.19599414
185	0x3b22f128	0.0024862979
186	0x3d904b3c	0.070456
187	0xbe918c98	-0.28427577
188	0x3b6274bd	0.0034554445
189	0xbbc61143	-0.006044538
190	0xbe486406	-0.19569406
191	0xbdc8ba7c	-0.09801194
192	0xbd760dcc	-0.06007175
193	0xbda4d074	-0.08047572
194	0x3d7a9afb	0.061182957
195	0xbdef0015	-0.116699375
196	0xbe015598	-0.12630308
197	0xbde2bc3b	-0.11071058
198	0x3d656b67	0.05601063
199	0xbe1a38b9	-0.150607
200	0x3e006a84	0.12540632
201	0x3dccda7e	0.100026116
202	0xbe2090ef	-0.15680288
203	0xbd2687e7	-0.04065695
204	0x3d622eb7	0.055220332
205	0x3d2392ea	0.03993503
206	0xbe27c27e	-0.16382787
207	0xbdfd6f73	-0.12374773
208	0xbe336831	-0.17520215
209	0x3dcd28c7	0.10017543
210	0x3dd912a5	0.10599259
211	0x3e21d07f	0.15802191
212	0x3d9a08f2	0.075212374
213	0xbe0096e0	-0.12557554
214	0x3e02ae0a	0.12761703
215	0xbd894430	-0.06702459
216	0x3c77d498	0.01512637
217	0xbd6d23bb	-0.057895403
218	0x3cc596da	0.024119783
219	0xbe1b5f55	-0.15173085
220	0x3e011752	0.12606552
221	0xbe28c91a	-0.16482964
222	0xbcf3f258	-0.029778644
223	0x3d9946b4	0.07484189
224	0xbd5d0b4e	-0.05396586
225	0xbe0f79f2	-0.14011362
226	0xbd377ce8	-0.044796854
227	0xbdb25de4	-0.087093145
228	0x3df23473	0.1182641
229	0xbe03f7d7	-0.12887512
230	0xbd6e4dc4	-0.05817963
231	0xbdec2f7a	-0.11532493
232	0xbe158848	-0.14602768
233	0xbe13007e	-0.14355657
234	0xbd8c696a	-0.06856044
235	0x3e072d74	0.13200933
236	0xbe1f62c5	-0.15565021
237	0xbd86238d	-0.065497495
238	0xbe16c174	-0.14722234
239	0xbddf52d2	-0.109044686
240	0xbdcf9f35	-0.10137788
241	0xbe225d25	-0.15855844
242	0xbe1512b6	-0.14557919
243	0x3dc10436	0.09424631
244	0xbd93db5f	-0.07219576
245	0x3e1f6337	0.15565191
246	0xbe11ecaa	-0.14250436
247	0xbe0554ce	-0.13020632
248	0xbdfe364c	-0.124127
249	0xbbeba939	-0.007191804
250	0xbe030cd6	-0.12797865
251	0xbda4b059	-0.08041448
252	0xbd06dd56	-0.032925926
253	0x3da43b82	0.08019163
254	0xbda39b54	-0.07988611
255	0xbd4442c4	-0.047915235

lstm_arch.weight_hh_l0 f4 [144, 36]
0	0x3de3c1d3	0.111209534
1	0xbdab7850	-0.08372557
2	0x3d61721b	0.05504046
3	0xbe120562	-0.14259866
4	0xbc120280	-0.008911729
5	0xbe162ce4	-0.14665562
6	0x3dcd5dfe	0.10027693
7	0x3d1b18a0	0.03786528
8	0xbd9991a6	-0.07498483
9	0x3b9bd12b	0.0047551594
10	0x3e12d91f	0.14340638
11	0xbdb504b6	-0.08838789
12	0xbdbdb3bb	-0.092627965
13	0xbe02c8ff	-0.12771986
14	0x3cbdccc0	0.023168921
15	0x3cc5af76	0.024131518
16	0xbde029ee	-0.109454975
17	0x3d0863bb	0.033298235
18	0xbe0ee5b6	-0.13954815
19	0xbce78deb	-0.028265914
20	0xbe17cb20	-0.1482358
21	0x3c864f56	0.016395252
22	0xbe1f116b	-0.15533988
23	0x3dca617e	0.098818764
24	0x3d80b11b	0.0628378
25	0xbdd5dd36	-0.10442583
26	0xbdfdd65b	-0.12394401
27	0x3e08473b	0.13308422
28	0xbe0bf8e4	-0.13669163
29	0xbd44be8b	-0.04803328
30	0x3dbe86db	0.093030654
31	0xbce18120	-0.027527392
32	0xbdddcc10	-0.108299375
33	0xbe265317	-0.16242634
34	0x3d9cf1d0	0.076633096
35	0xbd1b7946	-0.037957452
36	0x3d75ebb6	0.060039245
37	0xbdc14f2e	-0.094389305
38	0x3df4b3a6	0.11948328
39	0xbe1020f8	-0.14075077
40	0x3dd8e958	0.10591382
41	0xbd433486	-0.047657512
42	0x3dbaffd6	0.09130828
43	0x3dc812c6	0.09769206
44	0xbe01c8ea	-0.12674299
45	0x3d4a35f6	0.049367867
46	0x3daefeb3	0.08544674
47	0x3bd91cd6	0.006625752
48	0x3e17489e	0.14773795
49	0xbc0c5300	-0.008564711
50	0x3db1bc46	0.086784884
51	0x3e17fc52	0.14842346
52	0x3e10692f	0.14102624
53	0xbbf33dab	-0.007423123
54	0x3bbfbd56	0.005851428
55	0x3e0f0073	0.13965015
56	0xbd87e396	-0.066352054
57	0x3d9ab1b0	0.075534225
58	0xbdcf2f5b	-0.10116454
59	0xbd6f5820	-0.058433652
60	0x3e10718f	0.14105819
61	0x3cb9a48b	0.022661468
62	0x3d67cca6	0.056591652
63	0xbe0d316f	-0.13788389
64	0xbb9de900	-0.0048190355
65	0xbce410f6	-0.027840119
66	0x3dd2b0d6	0.10287635
67	0x3d6bfb86	0.05761292
68	0xbe19213c	-0.14954084
69	0x3e26790f	0.16257118
70	0xbd3afb30	-0.045649707
71	0xbdb16fa0	-0.08663869
72	0x3d848dab	0.064723335
73	0x3c9cda6b	0.019147119
74	0x3dd7a150	0.10528815
75	0xbc60d7c0	-0.013723314
76	0x3dd5ecc3	0.10445549
77	0xbe128423	-0.14308219
78	0x3cccce76	0.025000792
79	0x3d8dc310	0.06921971
80	0x3dafc3d6	0.085822746
81	0x3d819446	0.06327109
82	0x3dc71610	0.09721005
83	0x3deeca1b	0.11659642
84	0x3d5c21e6	0.053743266
85	0xbdc9ada0	-0.098475695
86	0xbd4d2de0	-0.050092578
87	0x3d744786	0.059638523
88	0xbdc36bfe	-0.09542082
89	0x3d352f4b	0.044234555
90	0x3d9d94f6	0.07694428
91	0xbe279ae0	-0.16367674
92	0x3d564d1b	0.052319627
93	0x3dd7d0d0	0.10537875
94	0x3e18e450	0.14930844
95	0x3e0fa8a7	0.1402918
96	0xbe10d85f	-0.14145039
97	0x3d0ed78b	0.034873527
98	0x3d982090	0.07428086
99	0x3c8ce936	0.017201047
100	0xbc52be80	-0.012862802
101	0xbd89dc96	-0.067315266
102	0x3db867f0	0.090041995
103	0xbe10db34	-0.1414612
104	0xbd917a26	-0.07103376
105	0x3c3b9916	0.011450073
106	0x3d2bab3b	0.041911345
107	0xbc82cc4b	-0.015966555
108	0x3cbd9e20	0.023146689
109	0xbe1cf498	-0.1532768
110	0xbe1c1850	-0.1524365
111	0xbdec3bdb	-0.11534854
112	0x3d9df533	0.07712784
113	0xbd24ef1b	-0.04026709
114	0x3da41843	0.0801244
115	0xbdb97223	-0.09054973
116	0x3c88338b	0.01662614
117	0x3db257fe	0.087081894
118	0xbd66da26	-0.056360386
119	0x3d0f70c6	0.03501966
120	0xbd0945e0	-0.033513904
121	0x3e057f38	0.13036811
122	0x3c7c4cd6	0.0153991785
123	0xbe006507	-0.12538539
124	0x3dad2176	0.08453648
125	0xbd702b30	-0.058634937
126	0x3de38116	0.111086056
127	0x3ddaa540	0.1067605
128	0x3e23bc02	0.15989688
129	0x3e005a42	0.1253443
130	0x3e19f386	0.15034303
131	0x3de51870	0.11186302
132	0xbd6413d6	-0.05568298
133	0x3ddb9c3e	0.1072316
134	0x3c78c92b	0.015184681
135	0xbde7bc58	-0.113152206
136	0xbdca7b30	-0.098867774
137	0xbdeac3be	-0.11463116
138	0xbab77356	-0.0013996165
139	0xbd7d81a0	-0.0618912
140	0xbdf5891b	-0.119890414
141	0xbcbc93ab	-0.023019632
142	0xbaef3a00	-0.0018251538
143	0x3df882c3	0.12134316
144	0xba011aab	-0.00049249333
145	0xbc024556	-0.007951101
146	0x3e274cfc	0.16337961
147	0x3c2ba76b	0.010476927
148	0x3d080310	0.033206046
149	0xbdb7fc30	-0.08983648
150	0x3d24c9fb	0.040231686
151	0x3dad2ea3	0.08456161
152	0xbd01bcc0	-0.031674147
153	0x3e055bd3	0.1302331
154	0xbb95392b	-0.004553934
155	0x3e029b50	0.1275456
156	0x3ddf7326	0.10910635
157	0x3e119f8e	0.14221022
158	0x3dc57a66	0.09642486
159	0x3d81db98	0.06340712
160	0xbe1be648	-0.15224564
161	0x3d45f50b	0.048329394
162	0x3d090c96	0.03345927
163	0x3d366f8b	0.04453997
164	0x3d462870	0.048378408
165	0xbd6d4e36	-0.057935916
166	0xbdb9adb0	-0.090663314
167	0x3e171462	0.14753869
168	0x3d8ab643	0.06773045
169	0x3d6232b0	0.05522412
170	0x3d88cb90	0.066794515
171	0xbd8dfbdb	-0.06932803
172	0xbd9ded36	-0.0771126
173	0xbc507f16	-0.012725612
174	0x3dfbe3c0	0.12299299
175	0x3dd37370	0.10324752
176	0xbd622606	-0.055212043
177	0x3b8c7b56	0.0042871637
178	0xbd9f4dbb	-0.07778498
179	0xbd2bbc8b	-0.041927855
180	0x3c80ad60	0.015707672
181	0xbb9af900	-0.00472939
182	0x3b955080	0.0045567155
183	0x3cab3a40	0.0209018
184	0xbe287452	-0.16450623
185	0xbdf8b488	-0.121438086
186	0xbdbea21e	-0.09308265
187	0x3cd21240	0.025643468
188	0xbdd6b8e0	-0.10484481
189	0x3db6edc3	0.08932068
190	0x3da00133	0.07812729
191	0xbd3909d6	-0.045175396
192	0xbd734de0	-0.05940044
193	0x3dbb3fdb	0.09143039
194	0x3de6934e	0.11258565
195	0xbe09c352	-0.13453415
196	0x3d0376d0	0.03209573
197	0x3dcec9c8	0.100970805
198	0x3e0c5483	0.13704114
199	0x3e21535f	0.1575446
200	0xbd7fa6f0	-0.062415063
201	0x3da6a3b8	0.081366956
202	0xbe128808	-0.14309704
203	0xbd044970	-0.032296598
204	0x3c95f100	0.018303394
205	0x3e03d353	0.12873583
206	0x3e161eab	0.14660136
207	0xbdf829cb	-0.121173464
208	0xbcf5d8f6	-0.030010682
209	0x3e26c227	0.16285
210	0x3dbb1306	0.09134488
211	0x3d350e96	0.044203363
212	0x3e00127b	0.1250705
213	0x3c22a42b	0.009926836
214	0x3a6b9aab	0.0008987586
215	0xbdbb4228	-0.09143478
216	0xbe0ae95f	-0.13565587
217	0x3e0ede1f	0.1395192
218	0x3dbfd918	0.09367579
219	0xbcd1704b	-0.02556624
220	0x3b5f24ab	0.0034048955
221	0x3e269d48	0.16270936
222	0xbd8b93db	-0.068153106
223	0x3e232e8f	0.1593573
224	0x3d64fd56	0.055905662
225	0xbd928e9b	-0.07156106
226	0xbe0eb22b	-0.13935153
227	0xbe1f6aee	-0.15568134
228	0x3de3aa7b	0.11116501
229	0x3d0cbd86	0.03436043
230	0x3e0dc64a	0.13845173
231	0xbe0ba7b7	-0.13638197
232	0xbdfe693b	-0.12422415
233	0xbe2066d6	-0.15664229
234	0xbc5ed2ab	-0.013600032
235	0x3c3422d6	0.010994634
236	0x3c5c6ec0	0.013454139
237	0x3d5b7910	0.05358225
238	0x3ce7d7a0	0.02830106
239	0x3dbb260e	0.09138118
240	0x3d725116	0.05915936
241	0xbdf2b198	-0.118502796
242	0x3dff4bcb	0.12465628
243	0x3da9b04b	0.08285578
244	0x3dd22590	0.10261071
245	0xbe088993	-0.1333373
246	0x3e112e1b	0.14177744
247	0x3de1921b	0.110141955
248	0x3dc9f0b0	0.098603606
249	0xbcd9e696	-0.02659921
250	0xbdb310e8	-0.08743459
251	0x3d7fb496	0.06242808
252	0x3dc2bd43	0.09508755
253	0x3cfcf640	0.03087914
254	0xbcce572b	-0.02518805
255	0xbd93bb9b	-0.07213517

lstm_arch.bias_ih_l0 f4 [144]
0	0x3e863ec5	0.26219764
1	0xbd9e9310	-0.07742894
2	0x3e08363e	0.13301942
3	0x3de77bc7	0.113029055
4	0x3dc87a91	0.09789003
5	0x3e47c29b	0.1950783
6	0xbd844fc1	-0.06460524
7	0x3dbb547d	0.09146974
8	0xbc6d680e	-0.014490141
9	0x3dd503fc	0.104011506
10	0x3e33a6d7	0.17544113
11	0x3ccf4ec6	0.025306117
12	0x3d5f9ad8	0.05459103
13	0xbdda9bfa	-0.106742814
14	0x3dfed9a2	0.12443854
15	0x3e8d7b7f	0.27633283
16	0x3d0ccc70	0.034374654
17	0x3ea6e4b5	0.32596365
18	0x3d047142	0.032334574
19	0x3de884e9	0.113534756
20	0x3e43e1aa	0.19129053
21	0xbc4b04c8	-0.012391277
22	0xbdc945df	-0.0982778
23	0x3e87dece	0.26537174
24	0x3cb30cd8	0.02185671
25	0xbddcf129	-0.10788185
26	0xbdb3a6b6	-0.08772032
27	0x3d9e3430	0.07724798
28	0x3dd2d891	0.10295213
29	0x3d092b58	0.0334886
30	0x3d60e379	0.054904435
31	0x3e92bb8e	0.28658718
32	0x3babc8ac	0.005242428
33	0xbc0833bd	-0.008313117
34	0x3e0a0092	0.1347678
35	0x3c31cfcc	0.010852765
36	0xbd9d65ee	-0.07685457
37	0xbd5bb10b	-0.05363564
38	0x3daa0c58	0.08303136
39	0x3e1cf6de	0.15328547
40	0x3d870d00	0.065942764
41	0xbe1c4260	-0.15259695
42	0x3df3ff38	0.119139135
43	0x3d585a50	0.052820504
44	0xbcb3d640	-0.021952748
45	0x3d4e2310	0.050326407
46	0x3d920856	0.07130496
47	0xbd9d9730	-0.07694852
48	0x3e1b181c	0.15145916
49	0xbd818e2e	-0.06325947
50	0xbdb8f3c6	-0.09030871
51	0x3dad8910	0.08473408
52	0xbd9a7fd6	-0.07543914
53	0xbe2a8ba6	-0.16654834
54	0xbdb535a3	-0.08848121
55	0x3dc62d08	0.09676558
56	0xbdaf62b8	-0.08563751
57	0x3c4e9296	0.012608191
58	0xbd5093c6	-0.050922178
59	0x3c0b5140	0.008503258
60	0xbd3640c6	-0.044495367
61	0x3dc97578	0.098368585
62	0xbc8a6756	-0.016894978
63	0x3dfca5ce	0.12336312
64	0xbd444dbb	-0.047925692
65	0xbe0a0fda	-0.1348261
66	0x3e253db3	0.16136818
67	0xbd9e0613	-0.07716002
68	0x3d141626	0.036153935
69	0x3dbac75b	0.09120055
70	0xbdd4001b	-0.103515826
71	0xbcf920cb	-0.030411145
72	0xbee2cefe	-0.44298548
73	0xbdb85253	-0.09000077
74	0xbe17014d	-0.1474659
75	0xbe3c7630	-0.1840446
76	0x3e9d7742	0.3075505
77	0x3e24d207	0.16095744
78	0xbe0ba0ba	-0.13635531
79	0x3e27d9ae	0.16391632
80	0x3c975e2b	0.01847752
81	0xbda62789	-0.081130095
82	0x3ec7ec66	0.39047545
83	0xbe0e1509	-0.13875212
84	0x3e22c3a1	0.15894939
85	0xbdcdd6e3	-0.10050752
86	0x3e753370	0.23945403
87	0xbf146c2b	-0.5797755
88	0xbc6a6c67	-0.014308072
89	0x3f00db93	0.50335044
90	0xbdf0407e	-0.11731051
91	0x3eba942d	0.36441174
92	0x3e9f8bd6	0.31161374
93	0x3e5a7c83	0.2133656
94	0x3d0a5235	0.033769805
95	0xbec43007	-0.38317892
96	0x3b74a4c5	0.0037329656
97	0x3e01dfdb	0.1268305
98	0xbeb30070	-0.3496127
99	0x3db14262	0.0865524
100	0xbeade295	-0.3396193
101	0x3e8bca56	0.27302808
102	0x3c873410	0.016504318
103	0xbefb0b00	-0.4903183
104	0xbeaf040a	-0.3418277
105	0xbe94832d	-0.2900633
106	0xbe442e9a	-0.19158402
107	0x3eda0cdd	0.4258794
108	0x3d969cf1	0.07354153
109	0xbdb80482	-0.08985235
110	0xbdb0a7db	-0.08625766
111	0x3e29a630	0.16567302
112	0x3d089454	0.03334458
113	0x3e549e94	0.20763618
114	0x3e1e0670	0.15432143
115	0x3e1b80fa	0.1518592
116	0xbda464fa	-0.08027072
117	0xbdae59d2	-0.085132256
118	0x3c077e47	0.008269853
119	0x3c93ada1	0.018027129
120	0xbde26b47	-0.11055618
121	0x3e08148b	0.13289087
122	0xbdcb9d6e	-0.09942137
123	0x3ea28a45	0.31746116
124	0x3d9a3641	0.07529879
125	0x3eaa1c90	0.33224916
126	0xbde84462	-0.11341168
127	0xbd71ddbd	-0.059049357
128	0x3dedf4a5	0.11618928
129	0xbd5593db	-0.05214296
130	0x3d93eaa3	0.07222488
131	0x3d66fb36	0.056391917
132	0x3d44af67	0.04801884
133	0x3df6b0e8	0.12045461
134	0x3ddcf8a7	0.10789614
135	0xbd06ccb6	-0.03291007
136	0xbd9cd69f	-0.07658123
137	0x3e08d41d	0.13362165
138	0x3dbb6f61	0.09152103
139	0x3e98a780	0.29815292
140	0xbc39c342	-0.011338057
141	0xbe0dc416	-0.13844332
142	0xbe1a516f	-0.15070127
143	0x3def7ba6	0.11693506

lstm_arch.bias_hh_l0 f4 [144]
0	0x3e8394ba	0.25699407
1	0xbdb1de5a	-0.08684988
2	0xbe1afe7a	-0.15136138
3	0xbde764e3	-0.112985395
4	0x3e809a9e	0.25117964
5	0x3cbda3cf	0.0231494
6	0x3e1ba5bc	0.15199941
7	0x3d3487ac	0.0440747
8	0xbd42b813	-0.047538828
9	0xbd705948	-0.058678895
10	0x3e042bf1	0.12907387
11	0x3cc0233a	0.023454297
12	0xbda59c13	-0.080864094
13	0x3d9bfba4	0.07616356
14	0x3c3072ed	0.010769588
15	0x3d7cfa20	0.061761975
16	0xbd49d16a	-0.04927198
17	0x3e078211	0.1323321
18	0x3d7e9e49	0.06216267
19	0xbd7dd988	-0.061975032
20	0x3da2d645	0.07951025
21	0xbd7d6766	-0.061866187
22	0xbd65bb70	-0.056086957
23	0x3dfa7c5c	0.12230751
24	0xbd98b338	-0.07456058
25	0xbdf1e5c5	-0.11811403
26	0x3e3b95ba	0.18318835
27	0xbda0564e	-0.07828961
28	0x3d41d1d1	0.047319237
29	0x3da9dbf1	0.082939036
30	0x3a9ffdf6	0.0012206424
31	0x3e829d64	0.25510705
32	0x3dc63385	0.09677795
33	0x3e17c1c4	0.1482001
34	0x3e347928	0.17624342
35	0xbc91b64f	-0.017787127
36	0xbe295053	-0.16534548
37	0x3cd835a0	0.026392758
38	0x3dbc28db	0.0918748
39	0x3e08f36f	0.13374113
40	0xbe191053	-0.14947633
41	0x3d0d6d46	0.03452804
42	0x3cb98020	0.022644103
43	0x3e25ca38	0.16190422
44	0x3df37456	0.11887424
45	0x3d3b90db	0.04579244
46	0x3d871270	0.065953135
47	0xbe283f3a	-0.16430369
48	0xbbd5b1d6	-0.006521444
49	0x3d8aa9b3	0.06770649
50	0xbdd80e30	-0.10549581
51	0xbcbf05e0	-0.023318231
52	0xbd802ec6	-0.06258921
53	0xbd7a4600	-0.061101913
54	0x3cc163b6	0.023607116
55	0x3d8ef8ab	0.069810234
56	0xbde134b3	-0.1099638
57	0x3dbd2c8e	0.09237014
58	0xbdcf0493	-0.10108294
59	0xbda6cafe	-0.081441864
60	0xbd673ab0	-0.056452453
61	0xbdd82320	-0.105535746
62	0xbd350780	-0.044196606
63	0xbe0b1e18	-0.13585699
64	0x3c6a5096	0.01430144
65	0x3da89d6b	0.0823315
66	0xbddcc290	-0.10779297
67	0x3d64b040	0.055832148
68	0x3c69e9c0	0.014276922
69	0x3cf7382b	0.03017815
70	0xbdd3af73	-0.10336199
71	0x3c1fe4d6	0.009759149
72	0xbecc623c	-0.39918697
73	0xbec4faf6	-0.38472718
74	0xbcb2c188	-0.021820799
75	0xbcf09518	-0.029367968
76	0x3f0d7f52	0.552724
77	0x3eca953f	0.3956699
78	0x3e07b598	0.13252866
79	0x3cca6562	0.024706546
80	0xbc93ad49	-0.018026965
81	0xbddbdc6d	-0.10735402
82	0x3e938aba	0.28816777
83	0xbcd012c9	-0.025399582
84	0x3d962115	0.07330529
85	0x3df96f2f	0.1217941
86	0x3e92e2b6	0.28688592
87	0xbee90ec1	-0.4551907
88	0x3e44cedb	0.19219534
89	0x3f153b37	0.5829348
90	0x3d475093	0.048660826
91	0x3ea71a15	0.32637087
92	0x3eba4df8	0.3638761
93	0x3e9d103a	0.30676442
94	0xbc3331a4	-0.010937128
95	0xbecff551	-0.4061685
96	0x3e29e7e5	0.16592367
97	0x3dc81ef4	0.09771529
98	0xbe9a6ac4	-0.3015958
99	0x3e9b62dd	0.30348864
100	0xbe9fc86b	-0.31207594
101	0x3e2a3882	0.16623119
102	0xbd0e7c6b	-0.034786623
103	0xbeffc90a	-0.49958068
104	0xbddb5039	-0.10708661
105	0xbe2f83ab	-0.17140071
106	0xbdf7352c	-0.120706886
107	0x3ece7b0b	0.4032825
108	0x3e7c1047	0.24615584
109	0x3e0180f5	0.1264685
110	0xbd089085	-0.03334095
111	0xbe131c00	-0.1436615
112	0x3e4673dc	0.19380134
113	0x3c45626c	0.012047391
114	0xbd3e7ae5	-0.04650392
115	0xbcde0ae1	-0.027104797
116	0x3d4aa67e	0.049475186
117	0x3b1c5ecc	0.0023860214
118	0x3d685cb1	0.056729022
119	0x3e1f946a	0.15583959
120	0x3d5138a9	0.051079426
121	0x3d099128	0.033585697
122	0x3d6a7c50	0.05724746
123	0x3eb61b29	0.35567597
124	0xbde1fef7	-0.11034959
125	0x3e8be772	0.27325016
126	0x3df9a13e	0.12188958
127	0xbcc6df26	-0.024276327
128	0x3d4ab926	0.049492978
129	0x3e3b22bb	0.18274967
130	0x3de4358e	0.11143027
131	0x3e5f45c4	0.21803957
132	0x3e0e57c2	0.13900664
133	0xbdca3a1a	-0.09874363
134	0x3dab9411	0.08377851
135	0xbe105bca	-0.14097515
136	0x3de9a73b	0.1140885
137	0xbd09df57	-0.03366026
138	0x3e1bab53	0.15202074
139	0x3eac1e00	0.33616638
140	0xbd876f80	-0.06613064
141	0xbd246b85	-0.0401416
142	0xbdd8d354	-0.10587183
143	0x3e81d4bd	0.2535762

rnn_arch.weight_ih_l0 f4 [36, 36]
0	0xbd18d2f6	-0.037310563
1	0x3dc1b108	0.09457594
2	0xbb4dda00	-0.0031410456
3	0xbdd8ad3b	-0.10579916
4	0x3b634b00	0.0034682155
5	0xbcd5aa76	-0.026082259
6	0xbd01c336	-0.03168031
7	0xbe2a470e	-0.16628668
8	0x3df096ae	0.1174749
9	0x3e163ae4	0.14670902
10	0xbe16a1ec	-0.14710206
11	0x3e0d1574	0.13777715
12	0x3df50253	0.11963334
13	0x3c1d4900	0.009599924
14	0x3c8fa016	0.01753239
15	0xbe28eb1a	-0.16495934
16	0xbd3541f0	-0.044252336
17	0x3e18d917	0.14926563
18	0x3cdf4740	0.027255654
19	0x3ca1f716	0.01977114
20	0xbe0bb624	-0.136437
21	0xbe19359e	-0.1496186
22	0x3e12bf8e	0.14330885
23	0x3d594350	0.05304271
24	0xbe06247a	-0.13099852
25	0x3dc24f8e	0.0948783
26	0xbcace8f6	-0.021107178
27	0x3e00630f	0.12537788
28	0xbcd9090b	-0.02649357
29	0x3dbc8fe8	0.092071354
30	0xbdd00173	-0.101565264
31	0xbdefaaa6	-0.117024705
32	0xbdd9b9e0	-0.10631156
33	0x3d59ebd0	0.053203404
34	0x3e1389e0	0.14408064
35	0xbd3be700	-0.045874596
36	0xbc28b7d6	-0.010297736
37	0xbe21c47f	-0.15797614
38	0x3dead96b	0.114672504
39	0xbbdac700	-0.0066765547
40	0xbde7b140	-0.11313105
41	0xbe26cba0	-0.16288614
42	0xbe1a2592	-0.15053394
43	0xbde71c28	-0.11284667
44	0x3d58582b	0.05281846
45	0x3c002beb	0.007822971
46	0xbb39f456	-0.0028374395
47	0x3e0b8e96	0.13628611
48	0xbd0f1210	-0.034929335
49	0x3d8c2f8e	0.06845008
50	0x3c01ea56	0.007929405
51	0x3dcef596	0.101054356
52	0x3dde5b86	0.108573005
53	0x3d55cb1b	0.05219565
54	0xbdaf78c3	-0.08567955
55	0xbb94d0ab	-0.0045414767
56	0x3da1c77b	0.07899376
57	0x3e058c5a	0.13041821
58	0x3d21f1cb	0.039537232
59	0x3e0c906e	0.1372697
60	0x3d120a30	0.035654247
61	0xbdaa1d23	-0.08306339
62	0xbe1bb4ae	-0.15205643
63	0xbd2e78f0	-0.042595804
64	0xbda75e83	-0.081723236
65	0x3e25dd04	0.16197592
66	0xbd54f820	-0.051994443
67	0xbda258ab	-0.07927068
68	0xbe05caac	-0.13065594
69	0x3e1565bf	0.14589594
70	0xbd7f138b	-0.062274497
71	0x3b554a00	0.0032545328
72	0x3e0da712	0.13833264
73	0xbe107666	-0.14107665
74	0xbb8e5e00	-0.0043447018
75	0xbd8c5613	-0.06852355
76	0x3c16f5c0	0.009213865
77	0x3ca258a0	0.01981765
78	0xbd7a736b	-0.061145227
79	0xbda34d0e	-0.079736814
80	0x3ccfabd6	0.025350492
81	0x3d6ff2eb	0.058581274
82	0xbdbedef6	-0.0931987
83	0xbdd5648b	-0.10419568
84	0x3d5573f0	0.05211252
85	0xbd0cb7b6	-0.034354888
86	0x3e1f9a36	0.1558617
87	0xbe0647e4	-0.13113362
88	0x3dae546b	0.08512195
89	0xbddbe94b	-0.107378565
90	0x3e27e186	0.16394624
91	0x3d6f02fb	0.05835245
92	0x3d56751b	0.052357774
93	0x3e10e39a	0.14149323
94	0x3d6e2cab	0.058148067
95	0x3ce85df6	0.028365117
96	0x3db04978	0.08607763
97	0x3e289226	0.16462001
98	0x3dd256f6	0.10270493
99	0x3e254a1c	0.16141552
100	0xbdb9efc8	-0.09078938
101	0x3d455fab	0.04818694
102	0xbe25732b	-0.16157214
103	0xbaf46956	-0.0018647115
104	0x3de19966	0.110155866
105	0x3dc24638	0.094860494
106	0x3e1d9097	0.15387188
107	0x3b850fab	0.0040607057
108	0xbd836f2b	-0.06417688
109	0x3d274696	0.0408388
110	0x3cb90a6b	0.022587975
111	0x3caed416	0.021341365
112	0x3cbe2100	0.023209095
113	0xbd899013	-0.06716933
114	0xbe13955c	-0.14412445
115	0xbccf2056	-0.025283974
116	0x3dfc0ab8	0.12306732
117	0x3d6ff1c6	0.058580182
118	0x3dcc08d6	0.09962623
119	0x3e25ded2	0.1619828
120	0xbde6488b	-0.11244305
121	0x3db8de53	0.0902678
122	0x3dc022b3	0.09381618
123	0xbe00887f	-0.12552069
124	0x3bb90c2b	0.0056472025
125	0x3d5cbc6b	0.053890627
126	0xbe17c4be	-0.14821145
127	0x3cd2a7c0	0.025714755
128	0x3d840b28	0.064474404
129	0x3d427320	0.047473073
130	0x3e12da68	0.14341128
131	0xbd999456	-0.07498996
132	0x3dd3c263	0.10339811
133	0x3e0b4162	0.1359916
134	0x3b2b9d00	0.0026186109
135	0xbade02ab	-0.0016938051
136	0xbd8a1326	-0.067419335
137	0x3e17c4db	0.14821188
138	0x3e0684b0	0.13136554
139	0x3db5e793	0.0888206
140	0xbdb7124b	-0.08939036
141	0x3d3951b0	0.04524392
142	0xbce13c4b	-0.02749457
143	0x3c6b70eb	0.014370183
144	0x3e09fc07	0.13475047
145	0xbde70c5b	-0.112816535
146	0x3d970190	0.07373345
147	0x3c4173d6	0.011807403
148	0x3de22196	0.11041562
149	0xbe01b152	-0.12665299
150	0xbd931c2b	-0.07183107
151	0x3d8f3c10	0.06993878
152	0x3e21203a	0.1573495
153	0xbbaa3956	-0.0051948233
154	0xbdb53a80	-0.088490486
155	0x3e23c723	0.15993933
156	0x3aee6600	0.0018188357
157	0xbde36c30	-0.111046195
158	0x3de70c08	0.11281592
159	0xbe12490b	-0.14285676
160	0x3deaea70	0.11470497
161	0x3d5c5806	0.053794883
162	0xbd8e7e28	-0.06957656
163	0x3e282897	0.16421734
164	0xbdf41e6e	-0.119198665
165	0xbb8f4b56	-0.0043729944
166	0x3a81a956	0.0009892385
167	0x3d2b8ae6	0.04188051
168	0x3dfbd00b	0.122955404
169	0xbdfc58f0	-0.12321651
170	0x3cfd634b	0.030931136
171	0x3d588400	0.05286026
172	0xbd3d03b6	-0.046146117
173	0x3d77c1e6	0.06048765
174	0x3a3ad000	0.00071263313
175	0xbb9c2bab	-0.004765948
176	0x3d8766b3	0.06611385
177	0x3dfeab36	0.12435
178	0x3d90b5b6	0.070659086
179	0xbe02f4d7	-0.12788711
180	0x3e26392a	0.16232744
181	0xbdd173a8	-0.10227138
182	0x3dfc5450	0.12320769
183	0x3d941d5e	0.07232164
184	0x3dd08dae	0.10183273
185	0x3dc61188	0.096713126
186	0xbd17bd2b	-0.03704564
187	0x3d0db726	0.034598492
188	0x3dcb06d3	0.09913411
189	0x3cdbf940	0.02685225
190	0x3d83cf9b	0.06436082
191	0xbdd0eb68	-0.1020115
192	0x3ddda74b	0.10822924
193	0xbdb1e776	-0.08686726
194	0xbe0a85c6	-0.13527593
195	0xbe080267	-0.13282166
196	0xbbf0cd80	-0.0073487163
197	0x3dc5970e	0.09647952
198	0xbe25ebf3	-0.16203289
199	0x3d8a313e	0.067476735
200	0x3d52ab0b	0.05143265
201	0x3d8973cb	0.06711539
202	0x3d8af25b	0.06784507
203	0xbde9bffb	-0.114135705
204	0x3dbf6af0	0.093465686
205	0x3d5cdf10	0.053923666
206	0x3d618170	0.05505508
207	0xbdc7b653	-0.097515725
208	0xbe263277	-0.16230188
209	0x3d808196	0.062747166
210	0x3c12f12b	0.008968632
211	0x3d0ea630	0.034826458
212	0x3e0e4a90	0.13895631
213	0x3dc3e533	0.09565201
214	0xbdbd5568	-0.092448056
215	0xbd95d810	-0.07316601
216	0xbdb4016e	-0.08789335
217	0x3d06f04b	0.032944005
218	0x3df1d1b0	0.11807573
219	0xbda02400	-0.078193665
220	0x3e0e56f2	0.13900355
221	0x3c0fd216	0.008778116
222	0xbd0acdb6	-0.033887587
223	0xbe08b78b	-0.13351266
224	0xbe265aa2	-0.16245511
225	0xbdea8e03	-0.11452868
226	0x3df78e4b	0.12087687
227	0xbda436c6	-0.0801826
228	0x3c615540	0.013753235
229	0xbcfd5bf6	-0.03092764
230	0x3d4dfa4b	0.050287526
231	0xbce346c0	-0.027743697
232	0xba48fc00	-0.00076669455
233	0xbcbc3296	-0.02297334
234	0x3e248232	0.1606529
235	0x3df38610	0.11890805
236	0x3e01dd53	0.12682085
237	0xbd579c10	-0.052639067
238	0x3c2845eb	0.010270576
239	0x3cd471a0	0.025933087
240	0xbd077e16	-0.03307923
241	0xbd4b6b96	-0.04966315
242	0x3e0ee74b	0.13955419
243	0x3da4a5ee	0.08039461
244	0xbdc87e9b	-0.09789773
245	0x3d63f930	0.055657566
246	0x3df09198	0.1174652
247	0xbd872573	-0.0659894
248	0x3db51020	0.08840966
249	0x3d85e568	0.065378964
250	0xbe0b8420	-0.1362462
251	0x3c7c7aeb	0.015410165
252	0x39b90aab	0.00035293898
253	0x3c630cc0	0.01385802
254	0xbdf90b86	-0.12160401
255	0xbbb2bad6	-0.0054544015

rnn_arch.weight_hh_l0 f4 [36, 36]
0	0x3dd9c788	0.10633761
1	0xbe29d0d8	-0.16583574
2	0xbda3d7d8	-0.08000153
3	0x3d8549a6	0.06508188
4	0xbce7728b	-0.02825286
5	0x3e03d594	0.12874442
6	0x3d621e56	0.05520471
7	0xbde1d056	-0.11026065
8	0x3c98b0b6	0.01863895
9	0x3d8d51e0	0.06900382
10	0xbddbe680	-0.10737324
11	0x3dbf7030	0.0934757
12	0x3d070c90	0.032970965
13	0x3e1769e0	0.14786482
14	0x3ddedbeb	0.1088179
15	0xbda83bfb	-0.08214565
16	0xbdacace8	-0.08431417
17	0x3cc3120b	0.023812314
18	0x3e1ecf58	0.15508783
19	0x3db095ee	0.08622347
20	0xbdbf71b3	-0.09347858
21	0x3e0ac1af	0.13550447
22	0xbdd4111e	-0.10354827
23	0x3d1d76e6	0.03844347
24	0xbe17d77e	-0.14828297
25	0xbdbdee1b	-0.09273931
26	0xbd2137f0	-0.039359987
27	0xbd6adfe6	-0.057342432
28	0x3e1038d0	0.14084172
29	0x3d8ad7be	0.06779431
30	0x3c3aebab	0.011408727
31	0xbc273d16	-0.010207435
32	0xbdf12adb	-0.11775752
33	0xbddc8988	-0.107684195
34	0xbd31b95b	-0.04338966
35	0xbd1c6fb0	-0.03819245
36	0xbdaeeebe	-0.0854163
37	0x3d617490	0.055042803
38	0x3dff86e8	0.12476903
39	0x3ddbc45b	0.10730811
40	0x3db66cf6	0.089075014
41	0xbe112e16	-0.14177737
42	0xbc92b6f6	-0.017909508
43	0xbaa836ab	-0.0012833675
44	0x3df1cc66	0.11806564
45	0xbce60600	-0.028079033
46	0x3db877fe	0.09007262
47	0x3ca7658b	0.020434162
48	0x3e0116d8	0.1260637
49	0xbc9a94eb	-0.018869838
50	0x3e13843e	0.14405915
51	0x3dba7bf3	0.09105673
52	0xbd3682a6	-0.04455819
53	0x3d8a16be	0.06742619
54	0xbcfae020	-0.03062445
55	0xbbff4d2b	-0.0077911816
56	0x3d04db76	0.032435857
57	0x3e15ea78	0.14640224
58	0xbd800ed0	-0.06252825
59	0xbe0e1f2b	-0.13879077
60	0x3e040366	0.12891921
61	0x3cf47820	0.029842436
62	0xbd74967b	-0.05971382
63	0x3e007d30	0.12547755
64	0xbd3288bb	-0.043587428
65	0xbe17216c	-0.14758843
66	0xbe025b86	-0.12730226
67	0x3d6aaf36	0.057296
68	0x3df4a9c0	0.1194644
69	0x3db15adb	0.086599074
70	0x3d985bf6	0.07439415
71	0xbc912feb	-0.017723044
72	0x3d1cb7a6	0.03826108
73	0x3cf52100	0.029922962
74	0x3db17083	0.08664038
75	0x3e05db24	0.13071877
76	0xbdf82150	-0.12115729
77	0x3d313c60	0.04327047
78	0x3dc15198	0.09439391
79	0xbd8cfce3	-0.06884172
80	0xbd7e7480	-0.06212282
81	0xbe0f8cf8	-0.14018619
82	0x3e29f208	0.16596234
83	0xbcbb2ceb	-0.022848567
84	0xbe08e020	-0.13366747
85	0x3e2240c7	0.15845023
86	0x3e1746ca	0.14773098
87	0xbda28f38	-0.07937473
88	0xbe0b3156	-0.13593039
89	0xbcbdfe00	-0.023192406
90	0xbda8a1eb	-0.082340084
91	0x3e1ea7da	0.15493718
92	0xbe160274	-0.14649373
93	0xbdbea09b	-0.09307977
94	0x3e269730	0.16268611
95	0xbe1a281a	-0.1505436
96	0x3e0378cc	0.12839049
97	0xbe0f2faf	-0.13983034
98	0xbd1528e0	-0.036415935
99	0xbd1372f0	-0.035998285
100	0x3da27096	0.0793163
101	0xbe11911a	-0.14215508
102	0x3cf4e196	0.029892724
103	0xbe0bf0e0	-0.13666105
104	0xbdddeba6	-0.10835962
105	0x3def2e23	0.11678722
106	0x3c9ca7b6	0.01912294
107	0x3d96c95b	0.07362624
108	0xbbed24d6	-0.007237057
109	0xbe166524	-0.1468702
110	0x3dada43e	0.08478592
111	0xbdaf0610	-0.08546078
112	0x3db3a2a8	0.087712586
113	0x3e00f5c7	0.12593757
114	0xbe26337e	-0.1623058
115	0xbdfb44e6	-0.12269001
116	0xbd10eab6	-0.035380088
117	0xbe1576c3	-0.14596085
118	0x3df82b3b	0.121176206
119	0x3dfa0e10	0.122097135
120	0xbbbc3b80	-0.0057443976
121	0x3e1ceb7b	0.15324204
122	0xbe051998	-0.12998044
123	0x3dd031e3	0.10165765
124	0x3d75b7bb	0.059989672
125	0x3e10084b	0.14065664
126	0x3e0830ab	0.13299815
127	0x3e114d62	0.14189675
128	0x3ba1cfd6	0.004938106
129	0x3e0dccec	0.13847703
130	0xbdb1ca8e	-0.08681212
131	0x3e24eb62	0.16105416
132	0xbc3e4116	-0.011612197
133	0xbe1826cc	-0.1485855
134	0x3daedefe	0.08538626
135	0xbdd050f3	-0.1017169
136	0x3d7dd666	0.061972044
137	0x3d3819b6	0.044946395
138	0xbdfbaf00	-0.12289238
139	0xbda4ca08	-0.08046347
140	0xbdeceef0	-0.11569011
141	0xbd9429f8	-0.072345674
142	0xbd67dbcb	-0.056606095
143	0x3cb30f96	0.021858018
144	0xbde4060e	-0.11133967
145	0x3dfc785e	0.12327646
146	0x3dcae116	0.09906213
147	0xbc3a3800	-0.0113658905
148	0x3ddd86d3	0.10816731
149	0x3ddb03f6	0.10694115
150	0xbdfa9f46	-0.1223741
151	0xbe1dc34a	-0.15406528
152	0xbc67b496	-0.014142176
153	0x3daa8c36	0.08327524
154	0xbcebd8a0	-0.028789818
155	0xbe095032	-0.13409498
156	0x3d2739c6	0.04082658
157	0x3dae5d8b	0.08513936
158	0x3e12a4c4	0.14320666
159	0x3db7bb0e	0.08971225
160	0x3e1d5534	0.15364534
161	0xbe10c0f2	-0.14136103
162	0x3d5eb9cb	0.054376405
163	0xbe1e8603	-0.15480809
164	0xbd1844d0	-0.037175
165	0x3e2a83fa	0.16651908
166	0xbd0684fb	-0.032841664
167	0x3dd3afa8	0.10336238
168	0x3de81d38	0.11333698
169	0x3e0603b0	0.13087344
170	0x3e200bf0	0.15629554
171	0xbdea1eae	-0.11431633
172	0x3defe536	0.117136404
173	0xbd5b8506	-0.053593658
174	0x3c757b80	0.014983058
175	0x3db635f3	0.08897009
176	0x3d0a4026	0.033752583
177	0xbe0873fb	-0.13325493
178	0xbc590040	-0.0132446885
179	0xbe05e43c	-0.13075346
180	0x3e22e68b	0.15908258
181	0x3e027943	0.1274157
182	0xbd8e93b0	-0.06961763
183	0xbd8659c8	-0.06560093
184	0xbddfed98	-0.10933989
185	0xbc7f4800	-0.015581131
186	0xbd885388	-0.06656557
187	0x3d0402b0	0.032229125
188	0x3d93d896	0.07219045
189	0xbe12535a	-0.14289609
190	0x3db1ba00	0.08678055
191	0x3cf5ce4b	0.030005595
192	0x3dcde6d0	0.100537896
193	0xbd9d71e8	-0.076877415
194	0x3cbbc580	0.022921324
195	0x3b618956	0.0034414134
196	0x3be20fab	0.0068988404
197	0xbc637deb	-0.013885002
198	0xbca375a0	-0.019953549
199	0x3d92bfb3	0.0716547
200	0xbd7ac8c6	-0.06122663
201	0x3d16c830	0.036812007
202	0xbde98c8b	-0.114037596
203	0xbd4b0aeb	-0.04957096
204	0xbdd11bf8	-0.10210413
205	0xbcca7740	-0.024715066
206	0x3dc6e628	0.097118676
207	0x3d746436	0.05966588
208	0xbd9f751e	-0.0778601
209	0x3d9f456b	0.07776912
210	0x3d805dab	0.06267866
211	0xbd51d5e0	-0.051229358
212	0x3bb2ec56	0.0054603023
213	0xbda6b5de	-0.08140157
214	0xbc1c00c0	-0.009521663
215	0x3e10bb33	0.14133911
216	0xbdb2f6d6	-0.087384865
217	0xbde2bdde	-0.110713705
218	0xbdec21c8	-0.11529881
219	0xbc0e8656	-0.00869902
220	0xbc974bab	-0.018468698
221	0xbd7796d6	-0.060446583
222	0x3daffa20	0.085926294
223	0xbc0d6240	-0.008629382
224	0xbe15d48c	-0.14631861
225	0x3c321d00	0.010871172
226	0x3bad3aab	0.005286535
227	0x3dce2418	0.10065478
228	0xbdfadd00	-0.12249184
229	0xbd8234ae	-0.06357704
230	0x3d84f108	0.064912856
231	0x3e159777	0.1460856
232	0xbd97c810	-0.07411206
233	0xbbede780	-0.007260263
234	0x3cc0154b	0.023447653
235	0x3af0d2ab	0.0018373331
236	0x3dbbd918	0.09172267
237	0xbdad24f3	-0.08454313
238	0x3b33e8ab	0.0027451913
239	0xbc38e856	-0.011285862
240	0xbe0ef55f	-0.13960789
241	0xbd2ee086	-0.04269459
242	0xbdf3e313	-0.11908545
243	0x3c551bc0	0.013007104
244	0x3dca9b1e	0.098928675
245	0x3d0384a6	0.032108925
246	0x3e192d86	0.14958772
247	0x3e052470	0.13002181
248	0x3bba17d6	0.005679111
249	0xbc99b376	-0.018762331
250	0x3e26e8c0	0.16299725
251	0xbdd28d68	-0.10280877
252	0xbceea220	-0.029130042
253	0xbc5484eb	-0.012971143
254	0x3e09dacc	0.1346237
255	0xbdf52003	-0.119689964

rnn_arch.bias_ih_l0 f4 [36]
0	0x3dd07a3e	0.10179566
1	0xbc565380	-0.013081431
2	0x3d5d7db6	0.054074965
3	0x3de91ae6	0.113820836
4	0xbd4ad41b	-0.049518686
5	0x3ca9ecd6	0.020742815
6	0x3e123514	0.1427806
7	0xbd96620e	-0.07342921
8	0xbbf9dcd6	-0.0076252026
9	0xbdd3cb40	-0.10341501
10	0xbba27180	-0.004957378
11	0x3b2e43ab	0.0026590626
12	0xbd8aafe3	-0.06771829
13	0xbe1d16dc	-0.15340751
14	0xbd7891ab	-0.060685795
15	0xbd127f30	-0.035765827
16	0xbe04fc68	-0.1298691
17	0xbdef74cb	-0.11692198
18	0xbddda888	-0.108231604
19	0xbdc8d790	-0.0980674
20	0xbe13a654	-0.14418918
21	0x3e12dcaa	0.14341989
22	0x3d807ee0	0.062741995
23	0x3df5b040	0.11996508
24	0x3d984c8b	0.074364744
25	0x3e2a7b18	0.16648519
26	0xbd327956	-0.043572746
27	0xbd233cc6	-0.03985288
28	0x3dc3437e	0.095343575
29	0xbd8a927e	-0.067662224
30	0xbdf6eac3	-0.12056496
31	0xbde30123	-0.11084201
32	0x3defcca6	0.117089555
33	0x3e1a1d00	0.15050125
34	0x3e0a3b87	0.1349927
35	0x3e0714cb	0.13191526

rnn_arch.bias_hh_l0 f4 [36]
0	0xbc0957eb	-0.008382778
1	0xbdee8cf0	-0.116479754
2	0xbd8b706b	-0.068085514
3	0xbe05e02f	-0.130738
4	0xbd3fa756	-0.046790443
5	0x39f1a2ab	0.000460883
6	0xbcd569f6	-0.026051503
7	0xbdbc94b6	-0.09208052
8	0x3d9481ae	0.07251297
9	0xbd09dffb	-0.03366087
10	0xbdb9a000	-0.09063721
11	0x3cc6c04b	0.024261614
12	0x3e21fae7	0.15818368
13	0xbdebd8a8	-0.11515933
14	0xbc4cdd40	-0.012503922
15	0xbd496f56	-0.049178444
16	0x3e10fe5e	0.14159533
17	0xbc80f056	-0.015739601
18	0x3dd90886	0.10597329
19	0xbe1c00e2	-0.15234712
20	0x3e2893ea	0.16462675
21	0xbbc773d6	-0.0060868068
22	0xbd8eb9a8	-0.06969005
23	0x3e0408d6	0.12893996
24	0x3d74ccdb	0.059765678
25	0x3dc548b6	0.09633009
26	0xbceba416	-0.028764766
27	0xbd9d05de	-0.07667135
28	0xbe0f0286	-0.13965806
29	0x3c379200	0.011204243
30	0x3e1c45f3	0.15261059
31	0x3e0194e0	0.12654448
32	0x3d18547b	0.03718994
33	0x3be66356	0.0070308847
34	0x3df42a96	0.11922185
35	0xbe27ad6c	-0.16374749

linear.weight f4 [1, 36]
0	0xbf8af945	-1.0857321
1	0xbf05124a	-0.5198103
2	0xbe79e0b4	-0.24402124
3	0xbe177666	-0.14791259
4	0x3f73123c	0.949497
5	0x3f561167	0.83620304
6	0xbdd6c82b	-0.10487398
7	0x3e3a75f0	0.18209052
8	0x3dd9d3b4	0.10636082
9	0xbd808698	-0.06275672
10	0x3f2a4a4f	0.66519636
11	0xbe697488	-0.2279836
12	0x3e248963	0.16068034
13	0x3db9cd77	0.090723924
14	0x3f2855fa	0.6575619
15	0xbfa075c9	-1.2535945
16	0x3e332ab2	0.17496756
17	0x3f9d23d7	1.2276562
18	0xbd2a1cc8	-0.041531354
19	0x3f14e55a	0.5816246
20	0x3f0f9f82	0.56102765
21	0x3f0f5f33	0.5600464
22	0x3b5f70d4	0.003409435
23	0xbf69417f	-0.91115564
24	0xbbf43ad5	-0.0074533024
25	0x3ea13ec4	0.314932
26	0xbf268571	-0.65047365
27	0x3ed3d78a	0.4137538
28	0xbf188cfd	-0.5959013
29	0x3ee25c3c	0.44210994
30	0x3e06e21c	0.13172191
31	0xbf99a10c	-1.2002273
32	0xbef2fefd	-0.47460166
33	0xbec4b748	-0.38421082
34	0xbeb726e5	-0.35771862
35	0x3f4b3c75	0.79389125
